checkpoints/checkpointAE_trained.pth (torch, 278398 bytes, 179 tensors)

conv1.weight f4 [2, 1, 4, 4]
0	0xbdffd190	-0.12491143
1	0xbdc511e4	-0.09622553
2	0xbdf7451b	-0.12073728
3	0xbda2bd9b	-0.079463206
4	0xbda32f3a	-0.07967992
5	0xbe4abea4	-0.19799286
6	0x3e2965c4	0.16542727
7	0x3d347cba	0.04406426
8	0x3d26ac1e	0.040691487
9	0x3da907d6	0.08253448
10	0xbdfd288f	-0.123612516
11	0xbd6be69f	-0.057592984
12	0xbd5ebeaa	-0.05438105
13	0x3e1b450e	0.15163061
14	0xbe6fe916	-0.23428759
15	0xbe0b37da	-0.13595524
16	0xbe6f41f1	-0.23364998
17	0xbda78175	-0.08178989
18	0x3dfd939b	0.12381669
19	0x3e8121e9	0.25221184
20	0x3db0312c	0.08603129
21	0x3e3fe7d4	0.18740779
22	0x3d1ca0c7	0.038239267
23	0x3e1e1f3c	0.15441602
24	0x3e60170a	0.21883789
25	0x3d7dea58	0.061991066
26	0x3e8f69db	0.2801045
27	0x3d45bc23	0.048275124
28	0xbe21fd18	-0.15819204
29	0x3d2c0b8b	0.042003196
30	0xbc9c0053	-0.019043123
31	0x3e251dab	0.16124599

conv1.bias f4 [2]
0	0xbd3fd9e1	-0.046838645
1	0x3e314adb	0.17313711

block1.conv1.weight f4 [4, 2, 3, 3]
0	0x3e2904f6	0.16505799
1	0xbe3aeed8	-0.18255174
2	0xbddeeb91	-0.108847745
3	0x3e403cc6	0.18773183
4	0xbde5de7a	-0.11224075
5	0xbcb18516	-0.021669906
6	0x3e1b40bc	0.15161413
7	0xbdeb6dc9	-0.11495549
8	0x3cc72303	0.024308687
9	0x3e06b010	0.131531
10	0x3e20d02d	0.15704413
11	0x3e05015a	0.12988797
12	0x3dca954a	0.09891756
13	0x3e1094e0	0.14119291
14	0x3e060b51	0.13090254
15	0xbdcb88d9	-0.09938211
16	0x3e3441a7	0.1760317
17	0xbe801ada	-0.25020486
18	0xbcfce65d	-0.030871565
19	0xbe5c570a	-0.21517578
20	0xbd2f14d1	-0.04274446
21	0xbe1e1f96	-0.15441737
22	0x3e0dfddf	0.13866375
23	0xbe29c3e5	-0.16578634
24	0xbe11c486	-0.14235124
25	0x3dff0714	0.12452522
26	0xbd4af09f	-0.04954588
27	0x3d6db281	0.058031563
28	0xbcdbd1fc	-0.026833527
29	0x3e4f4c49	0.20243944
30	0xbd8c3321	-0.068456896
31	0x3d2932da	0.04130826
32	0x3e7654b5	0.2405575
33	0xbdd541c9	-0.10412938
34	0x3d5d20d7	0.053986397
35	0x3d9e6a10	0.077350736
36	0xbe3b9d15	-0.18321641
37	0xbd05e673	-0.032690477
38	0xbe7c3c16	-0.24632296
39	0xbdba6886	-0.091019675
40	0x3d7b033a	0.061282374
41	0x3dd5e662	0.10444333
42	0x3c341eca	0.010993669
43	0x3d8d0fdc	0.068877906
44	0xbe03aeb1	-0.12859608
45	0x3e063686	0.13106737
46	0x3e3971f3	0.18109874
47	0xbdbcce1c	-0.09219
48	0x3e64190f	0.22275184
49	0xbe314c69	-0.17314304
50	0x3df8920e	0.12137233
51	0x3d510fc9	0.051040445
52	0xbe777fb2	-0.24169806
53	0x3dc67b2e	0.096914634
54	0xbd115ab1	-0.03548688
55	0x3e198fdc	0.14996284
56	0x3de19d1c	0.11016294
57	0xbe65203e	-0.2237558
58	0x3e13edf3	0.14446239
59	0x3df90fba	0.12161203
60	0x3d956a28	0.07295638
61	0x3e3c82eb	0.18409316
62	0x3e3c3717	0.1838039
63	0x3d765363	0.060138118
64	0x3d8b98a7	0.068162255
65	0x3df59168	0.11990625
66	0x3d8e9d2f	0.06963574
67	0x3cfaa682	0.030596975
68	0xbe86cb19	-0.26326826
69	0x3e3f9583	0.18709378
70	0x3dc7fa0c	0.097644895
71	0xbbaba24e	-0.005237854

block1.conv1.bias f4 [4]
0	0x3df7b967	0.120959096
1	0x3d259228	0.04042259
2	0x3d9b034c	0.07568988
3	0x3c27b36b	0.010235648

block1.bn1.weight f4 [4]
0	0x3f87a19d	1.0596195
1	0x3f7d6ae0	0.98991203
2	0x3f7e15cd	0.99252015
3	0x3f74f8b4	0.9569199

block1.bn1.bias f4 [4]
0	0xbe1aea21	-0.15128376
1	0xbc45312a	-0.012035647
2	0x3cb2bb72	0.021817897
3	0x3d1a15ad	0.037618328

block1.bn1.running_mean f4 [4]
0	0x3ee6d9e9	0.45088127
1	0x3f02bef2	0.5107261
2	0x3ed4a954	0.41535437
3	0xbd75411a	-0.05987654

block1.bn1.running_var f4 [4]
0	0x3dfc0ac2	0.123067394
1	0x3e22105e	0.15826556
2	0x3db5a2d4	0.088689476
3	0x3d0298a9	0.03188387

block1.conv2.weight f4 [4, 4, 3, 3]
0	0xbd601e1e	-0.054716222
1	0xbc1c5ecc	-0.009544086
2	0xbd238cef	-0.039929327
3	0xbd96f504	-0.07370952
4	0xbdee9a44	-0.116505176
5	0x3d83802e	0.06420933
6	0x3d83ed87	0.06441789
7	0xbdd042d1	-0.10168994
8	0x3e1c3593	0.15254812
9	0xbded0bb2	-0.11574496
10	0xbc9740a1	-0.018463435
11	0x3e04a1c1	0.12952329
12	0x3e1df557	0.15425621
13	0x3e0d08fa	0.13772956
14	0xbd849983	-0.064745925
15	0x3cd650c3	0.026161557
16	0x3d6f265b	0.058386188
17	0xbe0479f7	-0.12937151
18	0x3da3a2a3	0.07990005
19	0x3bcccb66	0.006249833
20	0xbe061a56	-0.13095984
21	0x3e3db3be	0.18525597
22	0x3e12145a	0.14265576
23	0xbd663e7f	-0.056211945
24	0x3ca78166	0.020447444
25	0xbe2de2c6	-0.16981038
26	0x3d9bf010	0.07614148
27	0xbbf3131a	-0.0074180486
28	0xbe2b70d6	-0.16742262
29	0xbc90e0d9	-0.01768534
30	0xbbebbfab	-0.0071944795
31	0xbde7d5b1	-0.11320055
32	0x3e13f7e6	0.14450034
33	0xbc91fe4d	-0.017821455
34	0x3d9f615b	0.07782241
35	0xbe212da5	-0.15740068
36	0x3bf1aa19	0.0073750135
37	0xbe17d5c3	-0.14827637
38	0xbe28de3b	-0.16491024
39	0x3df60ce4	0.120141774
40	0xbe2661e1	-0.16248275
41	0x3dafdb1a	0.08586712
42	0x3c2727cf	0.010202362
43	0x3e2f6745	0.17129238
44	0x3e3ad5f1	0.18245675
45	0xbd0b7e07	-0.034055736
46	0xbd9be95e	-0.07612871
47	0x3dc1b193	0.09457698
48	0x3de1846a	0.11011584
49	0x3dcffb7b	0.10155388
50	0x3cd71e11	0.026259454
51	0x3dba055c	0.090830535
52	0x3e11126d	0.14167185
53	0x3d98d632	0.074627295
54	0x3d6debd8	0.058086246
55	0xbe152eaf	-0.1456859
56	0xbbc66ecb	-0.006055688
57	0xbe1a8ec4	-0.15093523
58	0xbe18fdb5	-0.14940532
59	0x3cb71bc1	0.022352101
60	0xbb4336e1	-0.002978735
61	0x3cecf818	0.028926894
62	0x3e090c2c	0.1338355
63	0x3d684647	0.056707647
64	0xbd22c602	-0.039739616
65	0xbd8d753e	-0.06907128
66	0xbd80c76a	-0.06288035
67	0x3d80b272	0.06284036
68	0xbe123455	-0.14277776
69	0xbe048f91	-0.12945391
70	0xbe0b2a96	-0.13590464
71	0x3d6d2c04	0.057903305
72	0x3e26b7cd	0.16281052
73	0xbda9131e	-0.082555994
74	0xbd4eb180	-0.050462246
75	0xbd04acc0	-0.03239131
76	0xbe0bf361	-0.1366706
77	0x3ddfe2c8	0.10931927
78	0x3dd36570	0.10322082
79	0xbe0b759b	-0.13619082
80	0x3dba2c98	0.09090537
81	0xbd6666ca	-0.05625037
82	0x3d4ba3f3	0.0497169
83	0xbce1f824	-0.027584143
84	0x3cb96487	0.022630943
85	0xbd93bb83	-0.072134994
86	0x3e0f56c8	0.13997948
87	0xbd3d1b10	-0.046168387
88	0x3d85e034	0.06536904
89	0x3d81ac00	0.063316345
90	0xbe23ad8f	-0.15984176
91	0x3e2ebae1	0.17063476
92	0xbc6d31d3	-0.014477211
93	0x3d2809cf	0.04102498
94	0xbd69b609	-0.057058368
95	0x3cf1fdad	0.029539907
96	0x3ddf4ef8	0.10903734
97	0xbcedffb5	-0.029052595
98	0x3d4412a3	0.047869336
99	0x3e2ed5eb	0.1707379
100	0x3e287618	0.16451299
101	0xbd51bd53	-0.051205944
102	0xbc9b3ab0	-0.018948883
103	0xbdf8b663	-0.121441625
104	0x3d644ef4	0.055739358
105	0x3d482e41	0.048872236
106	0xbde1aab2	-0.11018886
107	0x3b814e53	0.0039461046
108	0xbde709af	-0.11281144
109	0x3e1f0757	0.15530144
110	0x3e19b8e3	0.15011935
111	0xbd485e04	-0.048917785
112	0xbd24f9e3	-0.040277373
113	0x3de11480	0.10990238
114	0x3dff439c	0.12464067
115	0x3cc87956	0.02447192
116	0xbda6e478	-0.08149046
117	0xbd4bd59a	-0.049764253
118	0x3e0b6706	0.13613519
119	0x3e233069	0.15936436
120	0x3e37e808	0.17959607
121	0xbe2c5b46	-0.16831693
122	0x3deca0e0	0.11554122
123	0x3df4ef33	0.11959686
124	0x3e12f806	0.14352426
125	0xbe1e2786	-0.15444764
126	0xbc81cf57	-0.015845938
127	0x3ac9f06a	0.0015406732
128	0xbdfd6708	-0.12373167
129	0x3d3ae14d	0.04562502
130	0x3dc8369a	0.097760394
131	0xbccd6b6e	-0.02507564
132	0x3e1a802d	0.15087958
133	0x3b6f00a7	0.0036468895
134	0xbce248b0	-0.02762255
135	0xbd734126	-0.059388302
136	0xbdcd8839	-0.10035748
137	0xbceb5e23	-0.028731411
138	0xbdcf8461	-0.10132671
139	0xbdd0e830	-0.10200536
140	0x3de30cad	0.11086402
141	0xbcd2d3bd	-0.02573573
142	0x3baa6d78	0.005201038
143	0xbdcfe092	-0.10150255

block1.conv2.bias f4 [4]
0	0x3e20ad6f	0.1569116
1	0x3dd62d6a	0.10457881
2	0xbd2a5a5b	-0.041590076
3	0xbe0a1da8	-0.13487875

block1.conv3.weight f4 [4, 4, 3, 3]
0	0xbe260719	-0.16213645
1	0x3e14db05	0.14536674
2	0xbb723105	-0.0036955487
3	0x3d2e5bfd	0.042568196
4	0x3d65cf1f	0.05610573
5	0x3e42887c	0.18997377
6	0xbc43fc31	-0.011961983
7	0xbe0f7ff2	-0.14013651
8	0xbdcd1c8c	-0.100152105
9	0x3e0fc724	0.1404081
10	0xbd99b1d9	-0.07504625
11	0xbe003b51	-0.12522627
12	0xbe183eb9	-0.14867677
13	0xbdf6d0e9	-0.12051565
14	0xbdeb4308	-0.114873946
15	0xbd975036	-0.07388346
16	0x3e2d8e41	0.16948797
17	0xbe12a43f	-0.14320467
18	0x3e29c9a7	0.1658083
19	0x3d20d8b9	0.039269183
20	0xbd478624	-0.04871191
21	0x3deb1572	0.114787
22	0xbe0b3d44	-0.1359759
23	0x3da0b98b	0.078478895
24	0xbb960d32	-0.0045792097
25	0x3d55a4ab	0.052158993
26	0x3d993df6	0.07482521
27	0xbcb330de	-0.021873888
28	0xbdc3b7d8	-0.0955655
29	0x3cd4f1b5	0.025994161
30	0xbdda8e0a	-0.10671623
31	0xbe157f74	-0.14599401
32	0x3d42c2b9	0.047548983
33	0x3cb5e310	0.022202998
34	0xbdf78a60	-0.1208694
35	0x3cc1bdca	0.023650069
36	0x3dcbabf1	0.099449046
37	0x3d398871	0.045296136
38	0x3e077aac	0.1323039
39	0xbce7fb68	-0.028318122
40	0xbdfe05e6	-0.12403469
41	0xbd978e98	-0.074002445
42	0x3d8bf180	0.06833172
43	0x3dd7bee9	0.1053446
44	0xbd7eaa41	-0.062174086
45	0xbe0c8be5	-0.1372524
46	0xbd81cc8e	-0.06337844
47	0xbe2372b2	-0.15961722
48	0x3e073a99	0.13205947
49	0xbd390a16	-0.045175634
50	0x3d6b4723	0.057440888
51	0xbda290bb	-0.079377614
52	0xbdc09f59	-0.09405393
53	0x3dd48cb0	0.103783965
54	0xbd9af4f5	-0.07566253
55	0x3e02ed63	0.12785868
56	0x3dcd54ec	0.10025963
57	0xbb2b2582	-0.0026114886
58	0x3df471fc	0.11935803
59	0x3e38fe5b	0.18065779
60	0xbe661e49	-0.2247249
61	0x3db105db	0.08643695
62	0xbe235031	-0.1594856
63	0xbb4cad92	-0.0031231386
64	0x3e0b905c	0.13629287
65	0xbd753d74	-0.05987306
66	0x3e1343d9	0.1438135
67	0xbcda26ea	-0.026629884
68	0xbe09a46e	-0.13441631
69	0x3da888c0	0.08229208
70	0xbde29cc6	-0.110650584
71	0x3e0d2528	0.13783705
72	0x3e235815	0.1595157
73	0x3c44bf95	0.012008567
74	0x3e186518	0.14882314
75	0x3ddd3f22	0.10803057
76	0xbe47f3f3	-0.19526653
77	0x3cde5abe	0.027142879
78	0xbdd4f21f	-0.103977434
79	0xbce60e4d	-0.028082991
80	0x3cbbbf22	0.022918288
81	0x3d25ff85	0.040526886
82	0x3e443bab	0.19163387
83	0x3d8b14ae	0.06791054
84	0x3caabd5a	0.020842243
85	0xbe05fff4	-0.1308592
86	0x3e15ea4b	0.14640157
87	0xbdf16f02	-0.11788751
88	0x3bee0b18	0.007264506
89	0xbd7d0d4b	-0.061780255
90	0x3cfb8cf8	0.030706868
91	0x3e0ae11c	0.13562435
92	0xbcb275d7	-0.021784706
93	0xbc6aa4e7	-0.014321542
94	0xbe0086cb	-0.1255142
95	0x3e21e6d5	0.15810712
96	0xbe1230c3	-0.14276414
97	0x3dae7d4e	0.08519994
98	0xbd5ea794	-0.054359034
99	0xbc81806e	-0.01580831
100	0xbdd34241	-0.10315371
101	0xbe031c56	-0.12803778
102	0x3dc0a9b2	0.09407367
103	0x3e16cba7	0.14726125
104	0xbd16d77c	-0.036826596
105	0xbd720aad	-0.059092212
106	0xbe28d52e	-0.16487572
107	0x3d0f616d	0.03500502
108	0x3bfe58a6	0.0077620326
109	0xbc40d4ca	-0.011769483
110	0xbdb90094	-0.090333134
111	0x3d9363b4	0.07196751
112	0x3e00eaac	0.1258952
113	0x3d9b8d31	0.075952895
114	0xbd58b6b8	-0.05290863
115	0xbddcd0ab	-0.10781988
116	0xbe29eaa5	-0.16593416
117	0x3d561c11	0.05227286
118	0x3b30cb24	0.002697655
119	0x3e189677	0.14901148
120	0xbd945688	-0.07243067
121	0xbe293ddb	-0.16527502
122	0xbd8f7bcb	-0.070060335
123	0x3e22f66b	0.15914313
124	0xbe042ed7	-0.12908493
125	0x3d569e54	0.052397087
126	0x3d851123	0.06497409
127	0x3d0672dd	0.032824386
128	0x3bd3b252	0.0064604664
129	0x3ce2bc9d	0.027677828
130	0xbe11f03c	-0.14251798
131	0xbe483bc8	-0.19554055
132	0x3cb84d48	0.022497788
133	0xbba68350	-0.0050815716
134	0x3e17b5da	0.14815465
135	0x3e39798c	0.18112773
136	0xbd1cc67d	-0.03827523
137	0x3d31cafd	0.043406475
138	0xbdfedbf4	-0.124442965
139	0xbb43454c	-0.0029795943
140	0x3df19c08	0.11797339
141	0xbd7fd288	-0.062456638
142	0x3e032073	0.12805347
143	0x3b87a54d	0.0041395784

block1.conv3.bias f4 [4]
0	0xbd88336e	-0.066504344
1	0xbd8fe42f	-0.070259444
2	0xbdec4733	-0.11537018
3	0x3e11eb33	0.14249878

block1.bn2.weight f4 [4]
0	0x3f79b9c2	0.9754907
1	0x3f79f782	0.9764329
2	0x3f8404ca	1.0313962
3	0x3f812e16	1.0092189

block1.bn2.bias f4 [4]
0	0x3d778a1c	0.060434446
1	0x3d212663	0.03934325
2	0xbcfdb829	-0.030971603
3	0xbd8692ff	-0.06571006

block1.bn2.running_mean f4 [4]
0	0xbe25e27a	-0.16199675
1	0xbdfe8dbb	-0.12429377
2	0xbd83262d	-0.06403766
3	0x3dc8bc1b	0.09801503

block1.bn2.running_var f4 [4]
0	0x3e48ed60	0.19621801
1	0x3daf67e1	0.08564735
2	0x3dc82ccd	0.0977417
3	0x3dd50487	0.10401254

block1.downsample.0.weight f4 [4, 2, 3, 3]
0	0x3de852a6	0.11343889
1	0x3e3ec02f	0.18628
2	0x3da39875	0.07988063
3	0x3e2b5c14	0.16734344
4	0xbe01182d	-0.12606879
5	0x3dccd820	0.1000216
6	0x3d815301	0.0631466
7	0xbc800022	-0.015625063
8	0xbcb5eb15	-0.022206822
9	0x3d79d6b0	0.060995758
10	0x3e519adc	0.2046923
11	0xbe527cad	-0.20555373
12	0x3e36605c	0.17810196
13	0xbe770053	-0.24121217
14	0xbd9d381f	-0.0767672
15	0xbcb98e01	-0.02265072
16	0xbe3a88e9	-0.1821629
17	0xbe6e676a	-0.23281637
18	0x3d817dc0	0.06322813
19	0x3e4b0e16	0.19829592
20	0x3dffd474	0.12491694
21	0x3e0c3de4	0.13695484
22	0x3d804512	0.06263174
23	0x3c028d60	0.007968277
24	0xbcda7b94	-0.026670255
25	0xbd383f44	-0.04498221
26	0x3e658a9c	0.22416157
27	0xbe2b6f82	-0.16741756
28	0xbe69c143	-0.2282763
29	0x3c93959c	0.018015675
30	0xbd893a0d	-0.067005254
31	0x3d9503e4	0.07276133
32	0x3dd21f7c	0.102599114
33	0xbddd8550	-0.10816443
34	0xbd634779	-0.055488084
35	0xbd9bfbb0	-0.07616365
36	0xbd7d1fe4	-0.06179799
37	0xbd27ce59	-0.040968273
38	0xbdd8fcec	-0.10595116
39	0x3e2c4089	0.16821493
40	0x3e236cbc	0.15959448
41	0x3d84b09b	0.06478997
42	0x3dbe2533	0.09284439
43	0xbdc57c46	-0.09642844
44	0x3e8405ed	0.2578577
45	0xbe3bac73	-0.18327503
46	0xbe592dfd	-0.2120895
47	0x3d8cb642	0.068707004
48	0x3e44eef6	0.19231781
49	0x3e4f844e	0.20265314
50	0xbe863de3	-0.2621909
51	0x3d29d6b9	0.04146454
52	0xbdde02cb	-0.108403765
53	0xbaf546af	-0.0018713082
54	0x3dc9b1d2	0.0984837
55	0xbe310b74	-0.17289525
56	0xbe7dad86	-0.24773225
57	0xbdb4d0e8	-0.08828908
58	0xbcc80439	-0.024416076
59	0xbe6d9290	-0.2320044
60	0x3db367dd	0.08760045
61	0xbdb26dda	-0.08712359
62	0xbe71c518	-0.23610342
63	0x3d1b357a	0.037892796
64	0x3d614182	0.054994114
65	0x3da7e70a	0.08198364
66	0x3cdb7ef7	0.02679394
67	0x3e090daa	0.13384119
68	0xbcc11246	-0.023568284
69	0xbc9b0238	-0.018921956
70	0x3d353de1	0.044248465
71	0x3e1ad5b7	0.15120588

block1.downsample.0.bias f4 [4]
0	0x3dcf0679	0.101086564
1	0xbdcadab1	-0.09904993
2	0x3d34f177	0.04417559
3	0x3e122fff	0.14276122

block1.downsample.1.weight f4 [4]
0	0x3f813060	1.0092888
1	0x3f7c57e2	0.985716
2	0x3f777d77	0.9667582
3	0x3f815868	1.0105104

block1.downsample.1.bias f4 [4]
0	0x3d778a1c	0.060434446
1	0x3d212663	0.03934325
2	0xbcfdb829	-0.030971603
3	0xbd8692ff	-0.06571006

block1.downsample.1.running_mean f4 [4]
0	0xbec4db3a	-0.38448507
1	0xbf2a23d0	-0.66460896
2	0xbe8918bb	-0.2677668
3	0x3f421017	0.758058

block1.downsample.1.running_var f4 [4]
0	0x3e15af57	0.14617668
1	0x3e54ac8d	0.20768948
2	0x3d83f052	0.06442322
3	0x3e7d2e4d	0.24724694

block2.conv1.weight f4 [8, 4, 3, 3]
0	0xbbea36f7	-0.0071476656
1	0xbd9706d0	-0.07374346
2	0xbd961a93	-0.073292874
3	0xbe26d967	-0.1629387
4	0x3cb32cfd	0.021872038
5	0x3d984f43	0.07436993
6	0x3e39384a	0.18087879
7	0x3bac7b13	0.005263695
8	0x3e19e9ad	0.15030546
9	0x3c747da8	0.014922537
10	0x3e181c8c	0.1485464
11	0x3df2c8bd	0.11854694
12	0xbdc8ed30	-0.09810865
13	0x3d76620f	0.06015211
14	0x3e1bc625	0.15212305
15	0x3c5a03c6	0.013306564
16	0xbe08ab11	-0.13346507
17	0x3e068368	0.13136065
18	0x3d22016b	0.039552134
19	0x3d1f2ec9	0.038862977
20	0x3dd268fe	0.10273932
21	0xbe0ca7d2	-0.13735893
22	0xbd2b0c30	-0.04175967
23	0x3cbd755f	0.023127256
24	0x3cdf6858	0.027271435
25	0xbdafcdb1	-0.085841544
26	0x3dccd4bd	0.10001514
27	0xbcbc86b4	-0.02301345
28	0xbcf2c625	-0.029635498
29	0x3cadf5c8	0.021235362
30	0xbdf911ab	-0.12161573
31	0x3e22ce69	0.15899052
32	0x3da1ab4a	0.07893999
33	0xbdb4df3c	-0.08831641
34	0xbdc6d3ff	-0.09708404
35	0x3e15bec6	0.14623556
36	0x3e377de9	0.17919125
37	0x3d25010f	0.040284213
38	0x3ca55b4c	0.020185135
39	0x3dd7200e	0.10504161
40	0xbdc042e8	-0.09387761
41	0x3db377de	0.08763097
42	0x3d3bb8f9	0.0458307
43	0xbdc208d5	-0.09474341
44	0xbd4ad9b4	-0.049524024
45	0x3e2a10e2	0.16608003
46	0x3b5affc5	0.003341661
47	0x3e014231	0.12622906
48	0xbdbae8c3	-0.09126427
49	0xbe2463bb	-0.16053669
50	0xbe0aa3c5	-0.13539036
51	0xbdb2ce23	-0.08730724
52	0x3dccfda3	0.10009315
53	0xbd29bfef	-0.041442808
54	0xbbb7bc87	-0.005607191
55	0x3dfbc699	0.12293739
56	0xbe0b5482	-0.13606456
57	0x3dd4a2e7	0.10382634
58	0xbe3ab3de	-0.18232676
59	0x3df6fb26	0.120596215
60	0xbc9f1ba7	-0.019422365
61	0x3de5d3fb	0.11222073
62	0x3d9e6697	0.07734411
63	0x3e0e9e76	0.13927636
64	0xbe3267b1	-0.17422368
65	0xbe2a823b	-0.16651241
66	0x3cf2d4b6	0.029642444
67	0x3d6e21e1	0.05813778
68	0xbd87fbc9	-0.06639821
69	0xbdfcd4a7	-0.12345248
70	0x3c7e107a	0.015506858
71	0xbdbf0b13	-0.09328284
72	0xbd99a20f	-0.07501613
73	0xbcda0b4a	-0.026616711
74	0x3d9bd2a3	0.07608535
75	0xbc9d2256	-0.019181412
76	0x3bcfc42a	0.0063405233
77	0xbe04a565	-0.12953718
78	0xbd74f72e	-0.05980604
79	0x3d9afe23	0.07568004
80	0xbd98f136	-0.07467882
81	0xbc082757	-0.008310161
82	0xbdab0440	-0.0835042
83	0x3dc464a4	0.09589508
84	0xbdcaf99c	-0.099108905
85	0xbd00bce2	-0.031430133
86	0xbbf9d88b	-0.007624691
87	0x3d443321	0.047900323
88	0x3e4ab455	0.19795354
89	0x3e2c9f95	0.1685775
90	0xbc8c9c58	-0.017164394
91	0xbda9079e	-0.08253406
92	0xbc6f75f8	-0.014615528
93	0xbbfef811	-0.0077810367
94	0x3dbe079d	0.09278796
95	0xbdf5b292	-0.1199695
96	0x3df6bd83	0.12047865
97	0x3d448490	0.047977984
98	0x3e066e6a	0.13128057
99	0xbd4be983	-0.04978324
100	0xbddc7297	-0.10764044
101	0x3d7ffa77	0.06249472
102	0xbd9c91b2	-0.07644977
103	0x3de4e0af	0.111756675
104	0x3d87882d	0.0661777
105	0x3dc6ed9e	0.09713291
106	0xbd5ce776	-0.053931676
107	0x3dd94336	0.106085226
108	0xbd015c73	-0.031582307
109	0x3dfa7cb0	0.122308135
110	0xbd3c4e48	-0.045973092
111	0xbe2f323c	-0.17109007
112	0x3e059e17	0.13048588
113	0xbb09646f	-0.0020964404
114	0x3cc6fd03	0.024290567
115	0xbdca9873	-0.09892359
116	0x3ddfc143	0.109255336
117	0x3daaf371	0.08347214
118	0x3b7d6ea9	0.0038670695
119	0xbdd9fe88	-0.10644251
120	0xbd43401f	-0.047668573
121	0xbd8f61e3	-0.07001092
122	0x3d8f5a98	0.06999701
123	0x3e0cbfe4	0.13745075
124	0x3e147447	0.14497481
125	0x3def40e4	0.11682299
126	0x3e061e7d	0.13097568
127	0x3dbc97a3	0.0920861
128	0x3d8720e1	0.06598068
129	0xbdfd0d69	-0.123560734
130	0xbd4d9e22	-0.050199635
131	0xbd17472a	-0.0369331
132	0xbda5f7a9	-0.08103878
133	0x3d53838f	0.051639136
134	0x3cfa3439	0.03054248
135	0x3df8b7e9	0.12144453
136	0xbe31fd4a	-0.17381778
137	0x3e008b33	0.125531
138	0xbbfb00d8	-0.0076600127
139	0x3bce7236	0.006300236
140	0x3d2b0c65	0.041759867
141	0xbdc5204d	-0.096253015
142	0xbce830a9	-0.028343515
143	0x3dd9d581	0.10636426
144	0xbe3ea90d	-0.18619175
145	0xbe53750e	-0.20650122
146	0x3cb2af2b	0.021812042
147	0x3d07a60c	0.03311734
148	0xbcc9dc21	-0.024641098
149	0x3d7cdb7b	0.06173275
150	0x3d1c52b7	0.03816482
151	0xbe0c3a6a	-0.13694158
152	0xbcc639cc	-0.024197482
153	0xbe3fd134	-0.18732148
154	0x3cd44c31	0.025915237
155	0xbe4969aa	-0.19669214
156	0xbe1559c2	-0.14585021
157	0xbe03b188	-0.12860692
158	0x3defca37	0.11708491
159	0x3d63f917	0.055657472
160	0xbcc8208e	-0.024429586
161	0xbd211117	-0.03932294
162	0xba36e941	-0.00069775066
163	0xbc428781	-0.011873127
164	0x3dc64157	0.09680431
165	0x3e31a762	0.17349008
166	0xbe2d5a07	-0.16928874
167	0x3e0ed9ab	0.13950221
168	0x3d45ef76	0.04832407
169	0x3e0be234	0.13660508
170	0xbc8fbba2	-0.017545525
171	0x3e22fd68	0.1591698
172	0xbd299e20	-0.041410565
173	0xbde41753	-0.11137261
174	0x3d2f2526	0.042760037
175	0xbda6cae4	-0.08144167
176	0xbd5eaee6	-0.054366015
177	0xbaa86617	-0.0012847808
178	0x3b0772ac	0.0020667715
179	0x3c89591e	0.016766127
180	0xbdab63a5	-0.08368615
181	0x3dbdb6bb	0.09263369
182	0xbdc904c5	-0.09815363
183	0xbd919ae1	-0.07109619
184	0xbd958ada	-0.073018745
185	0xbd1b8e9d	-0.037977803
186	0xbe0ecc04	-0.13945013
187	0xbd2d6030	-0.04232806
188	0xbdf0c9b2	-0.1175722
189	0xbd8b56b6	-0.06803648
190	0x3d83b0e4	0.064302236
191	0xbd8d10d4	-0.06887975
192	0xbe0396a5	-0.12850435
193	0xbe0754cc	-0.13215941
194	0x3e11c14d	0.14233895
195	0x3dc6e5c5	0.09711794
196	0x3de5da88	0.11223322
197	0x3d30d0ee	0.043168
198	0xbe251ee7	-0.1612507
199	0x3d68ca02	0.056833275
200	0x3e2cb89c	0.16867298
201	0x3c27f3af	0.01025097
202	0x3b45710d	0.0030127198
203	0xbd875ad2	-0.066091195
204	0xbd9e059d	-0.077159144
205	0xbdf42245	-0.11920599
206	0x3c6c111c	0.014408376
207	0x3db91058	0.090363204
208	0xbdade2c2	-0.08490516
209	0xbc74d6fb	-0.014943833
210	0x3dd051f4	0.10171881
211	0x3c2b967a	0.010472888
212	0xbe3fa3ee	-0.18714878
213	0xbced4c84	-0.02896715
214	0xbcc6a919	-0.024250554
215	0x3c842b2d	0.016133869
216	0xbe0794b5	-0.13240321
217	0x3d76805b	0.060181003
218	0xbc1ab913	-0.009443539
219	0xbe2294d4	-0.15877086
220	0xbe2785f5	-0.16359694
221	0x3cf889de	0.030339178
222	0x3de9b2a0	0.11411023
223	0xbe3f3582	-0.18672755
224	0xbd658bc2	-0.056041487
225	0x3dbfaf5f	0.09359621
226	0x3e1615b7	0.14656721
227	0xbd123c68	-0.03570214
228	0x3dcf7f22	0.101316705
229	0xbd8692f4	-0.06570998
230	0x3cec8166	0.028870296
231	0x3e150c2d	0.14555426
232	0xbce3adc4	-0.027792819
233	0x3d9b48c8	0.07582241
234	0xbd8981ed	-0.067142345
235	0xbe0a023d	-0.13477416
236	0xbd978190	-0.07397759
237	0xbe3631cf	-0.17792438
238	0xbd9532fc	-0.07285115
239	0x3dc873fb	0.097877465
240	0xbe363d11	-0.17796732
241	0x3dfc99e1	0.123340376
242	0xbd59bf82	-0.05316115
243	0xbd8c03d8	-0.06836671
244	0xbe00d8cd	-0.12582703
245	0x3d92ab48	0.071615756
246	0xbd12d305	-0.035845775
247	0xbda1c55c	-0.078989714
248	0xbd78ac92	-0.06071145
249	0x3db1212f	0.086489074
250	0x3ceff8f1	0.02929351
251	0xbdf4ff00	-0.119627
252	0x3ca45fb9	0.020065175
253	0xbdd69bf8	-0.104789674
254	0xbd8516b7	-0.06498473
255	0xbd8ca655	-0.06867663

block2.conv1.bias f4 [8]
0	0x3e0eb110	0.13934731
1	0x3e1ff0b7	0.15619169
2	0x3e0f49e6	0.13993034
3	0xbd26414a	-0.04058961
4	0xbe23a9a9	-0.15982689
5	0xbd9ee4e9	-0.07758505
6	0x3db843f9	0.0899734
7	0xbd9f95f2	-0.07792272

block2.bn1.weight f4 [8]
0	0x3f7d052d	0.9883602
1	0x3f804fe8	1.0024385
2	0x3f83f362	1.030865
3	0x3f830c76	1.0238178
4	0x3f818640	1.0119095
5	0x3f80d2a0	1.0064278
6	0x3f82b9eb	1.0212988
7	0x3f7d51f2	0.98953164

block2.bn1.bias f4 [8]
0	0xbb8f3e35	-0.0043714293
1	0x3c0e4af7	0.008684865
2	0xbba9afbf	-0.0051784213
3	0xbd3eb7c2	-0.046561964
4	0xbd11363b	-0.03545211
5	0x3c29a03c	0.010353144
6	0xbcd6b94e	-0.026211407
7	0x3ceb24ad	0.028704012

block2.bn1.running_mean f4 [8]
0	0x3e5542dd	0.20826288
1	0x3dfc7cfb	0.12328526
2	0x3de026d5	0.109449066
3	0xbd98092a	-0.07423623
4	0xbdcd18e3	-0.100145124
5	0xbe0b8f84	-0.13628966
6	0x3d7a8caf	0.061169323
7	0xbe5c73ef	-0.215286

block2.bn1.running_var f4 [8]
0	0x3eb15f9b	0.34643254
1	0x3f162703	0.5865328
2	0x3e9b05b0	0.30277777
3	0x3ed42552	0.41434723
4	0x3f08e90b	0.53480595
5	0x3f0c231a	0.5474106
6	0x3ebafc63	0.3652068
7	0x3f139a6d	0.5765751

block2.conv2.weight f4 [8, 8, 3, 3]
0	0xbb022a63	-0.001986169
1	0xbd2b7a95	-0.04186495
2	0x3d5e0f42	0.05421377
3	0x3c225854	0.009908754
4	0xbd8a87aa	-0.06764157
5	0x3dce3656	0.100689575
6	0x3c856d75	0.016287545
7	0x3d7671e4	0.06016721
8	0x3d284091	0.0410772
9	0xbdca214b	-0.098696314
10	0xbd47e58c	-0.048802897
11	0xbcb4324f	-0.021996645
12	0x3df50393	0.11963572
13	0x3d3ad979	0.045617554
14	0xbc01f81e	-0.007932691
15	0xbdfb9972	-0.12285127
16	0xbc7d7c2a	-0.015471498
17	0x3ca45316	0.02005915
18	0xbe2fe728	-0.17178023
19	0x3cf94653	0.030429041
20	0xbe03b7e8	-0.12863123
21	0xbdd77c45	-0.105217494
22	0xbe0b1c2e	-0.13584968
23	0xbd08760d	-0.033315707
24	0x3dbbef5e	0.09176515
25	0x3ca95740	0.020671487
26	0xbcea14d1	-0.02857438
27	0xbd3c3026	-0.045944355
28	0x3dd60cef	0.10451686
29	0xbdc537b9	-0.09629769
30	0xbcc1adc1	-0.023642423
31	0x3d186698	0.037207216
32	0xbdceb6a1	-0.100934274
33	0xbe211944	-0.15732294
34	0xbddde2fe	-0.10834311
35	0xbdb0aea1	-0.08627058
36	0x3cb3e954	0.021961845
37	0x3bd0c485	0.006371083
38	0xbde373ec	-0.11106095
39	0x3d0c63db	0.034274917
40	0x3d9c5ee0	0.076352835
41	0xbd5addff	-0.05343437
42	0x3ba739fe	0.0051033488
43	0xbd8b283f	-0.06794786
44	0xbcfc4c78	-0.030798182
45	0xbc870c48	-0.016485348
46	0x3dd9c536	0.10633318
47	0x3c4c3e74	0.012466062
48	0xbc85f30b	-0.016351243
49	0x3cff7b65	0.031186769
50	0xbd3b2d7d	-0.045697678
51	0x3c603b2c	0.013685983
52	0x3dd0f55e	0.1020305
53	0x3bfae081	0.0076561575
54	0xbcd0cc7a	-0.025488127
55	0x3df0e875	0.11763088
56	0x3dfcd3c9	0.12345082
57	0x3dddb67f	0.10825824
58	0x3d1c68d7	0.03818592
59	0xbc3c8d6f	-0.01150833
60	0xbda1e08f	-0.07904159
61	0xbc526242	-0.012840809
62	0xbdab9554	-0.083780915
63	0xbcde9301	-0.027169706
64	0xbba410f6	-0.0050069047
65	0xbd866efb	-0.065641366
66	0xbd056cea	-0.03257457
67	0x3d99c07c	0.075074166
68	0x3ddc497d	0.10756204
69	0x3cfdc81b	0.030979207
70	0xbde84ee8	-0.11343175
71	0xbdd27599	-0.10276336
72	0xbbd75121	-0.0065709506
73	0x3da052b2	0.07828273
74	0xbe01e8fe	-0.12686536
75	0x3d250e82	0.04029704
76	0xbd436d74	-0.047711805
77	0x3c6a5952	0.014303522
78	0xbd508491	-0.050907675
79	0x3d30a85b	0.043129306
80	0xbcaa0dd5	-0.020758549
81	0xbddbbe89	-0.10729701
82	0x3d28d6b9	0.0412204
83	0x3d899314	0.06717506
84	0xbd074c02	-0.03303147
85	0x3d959c3f	0.07305192
86	0xbd0717c7	-0.03298166
87	0x3dd1ef0d	0.102506734
88	0x3de5b5ad	0.112162925
89	0x3dcb767b	0.09934708
90	0x3daa3a95	0.08311955
91	0x3d989fe6	0.07452373
92	0x3e12747c	0.14302248
93	0x3d8ff10f	0.070284
94	0xbd9e59a9	-0.07731945
95	0x3da39988	0.07988268
96	0x3df3d7a2	0.11906363
97	0x3dff9691	0.1247989
98	0x3c7eecc8	0.015559383
99	0x3b2dcefb	0.0026521075
100	0x3d508d6a	0.050916113
101	0xbbdd1e07	-0.0067479643
102	0x3cc1f426	0.02367599
103	0xbd66994c	-0.05629854
104	0xbd0da98c	-0.03458552
105	0x3d9d347b	0.076760255
106	0xbd23dab8	-0.04000351
107	0xbd4cf001	-0.050033573
108	0xbb24db89	-0.0025155267
109	0x3d8678b9	0.06565995
110	0x3dd93081	0.106049545
111	0xbd83dcd6	-0.064386055
112	0xbd1d1faf	-0.038360294
113	0xbcc402db	-0.023927143
114	0xbdc659da	-0.096851066
115	0x3d94509a	0.07241936
116	0xbd9576b6	-0.07298033
117	0x3d240490	0.040043414
118	0xbd38a07a	-0.045074917
119	0x3e0a5907	0.13510524
120	0xbd3f9a7e	-0.046778195
121	0x3dee8bb8	0.11647743
122	0x3d9f5ec7	0.07781749
123	0xbdd0fbdf	-0.102042906
124	0xbcf8bab0	-0.030362457
125	0xbdd8e8a3	-0.10591247
126	0xbdc93dc4	-0.09826234
127	0x3db1d40d	0.086830236
128	0x3d832978	0.06404394
129	0xbdd385e9	-0.10328276
130	0xbdfb53b4	-0.122718245
131	0x3d761bca	0.060085095
132	0xbdb952b4	-0.090489775
133	0xbdda44b9	-0.10657639
134	0xbd43e45a	-0.047825195
135	0xbd06069a	-0.03272114
136	0x3dd074b6	0.10178511
137	0xbd90a608	-0.07062918
138	0xbd2da3ec	-0.042392656
139	0x3a631946	0.0008663129
140	0x3c5037d1	0.01270862
141	0xbc0fa146	-0.008766478
142	0xbd34e96d	-0.044167925
143	0x3dc02150	0.09381354
144	0x3d166ab3	0.03672285
145	0xbdbaa0d1	-0.091127045
146	0x3dd66f74	0.10470477
147	0xbdecbdc9	-0.11559636
148	0xbd8bd639	-0.06827969
149	0x3d8d504c	0.06900081
150	0xbd1205f0	-0.035650194
151	0xbc597da4	-0.013274584
152	0xbc17faef	-0.009276136
153	0xbcae789b	-0.021297744
154	0xbd5f2732	-0.05448074
155	0xbe129863	-0.14315943
156	0x3dfac431	0.12244452
157	0xbd922216	-0.071354076
158	0xbc936f40	-0.017997384
159	0xbd81ceb6	-0.06338255
160	0x3da33f3e	0.07971047
161	0xbb1b1e24	-0.0023669088
162	0xbdc90a06	-0.09816365
163	0x3d87316f	0.066012256
164	0x3d2c011e	0.041993253
165	0x3c35b7c6	0.011091178
166	0xbd4d2455	-0.050083477
167	0x3d257ea4	0.040403977
168	0x3d0586fd	0.032599438
169	0xbd081d9b	-0.03323136
170	0xbda71a7b	-0.081593476
171	0x3d3989d9	0.045297477
172	0xbd8ce46e	-0.06879507
173	0x3daf9038	0.085724294
174	0xbdd1233f	-0.10211801
175	0x3d7e7bf4	0.06212993
176	0x3dfb9708	0.12284666
177	0x3c975724	0.01847417
178	0x3df09ea1	0.11749006
179	0x3def7336	0.116918966
180	0xbd91661b	-0.07099553
181	0xbd824044	-0.06359914
182	0x3c8c515e	0.017128643
183	0x3dd0ffd4	0.10205045
184	0x3de76d3a	0.1130013
185	0x3dac3635	0.08408777
186	0x3d5e5079	0.054275963
187	0x3d61ac05	0.05509569
188	0x3a6c4978	0.0009013633
189	0xbb2a694f	-0.002600271
190	0xbcdb8fbe	-0.02680194
191	0xbdb2015f	-0.08691668
192	0xbbe871cd	-0.0070936442
193	0x3da689ea	0.08131774
194	0x3d82ccc7	0.063867144
195	0xbcf2a0ef	-0.029617755
196	0xbb20657e	-0.0024474557
197	0xbdbab59a	-0.09116669
198	0xbcf84f83	-0.030311352
199	0xbd98d2c9	-0.07462079
200	0x3d924da2	0.071437135
201	0xbcf9b0b8	-0.030479774
202	0xbafcaf8a	-0.0019278389
203	0xbddffee2	-0.10937287
204	0x3d48da9e	0.049036615
205	0xbd8dc5e0	-0.06922507
206	0xbdab73f7	-0.08371728
207	0xbdf0a88f	-0.117509
208	0xbd8c4013	-0.06848159
209	0xbdb1a7a8	-0.08674556
210	0x3e34c3e6	0.17652854
211	0x3dce04a7	0.10059481
212	0xbbd0b034	-0.0063686613
213	0x3e1a6b95	0.15080102
214	0xbe01fabb	-0.12693302
215	0xbd13c1ee	-0.036073618
216	0x3c9c9f6c	0.019118987
217	0xbaf8ad24	-0.0018972498
218	0xbd75ec63	-0.06003989
219	0x3ddbe7da	0.107375816
220	0x3c8c6aa1	0.017140688
221	0xbd4778ba	-0.04869912
222	0xbd1f66e7	-0.038916495
223	0x3cdb61bd	0.026780004
224	0x3c8b690f	0.01701787
225	0x3e0c43ad	0.13697691
226	0x3d20c4cb	0.039250176
227	0xbcf65758	-0.030070946
228	0x3bf9a251	0.0076182266
229	0x3d6085c5	0.054815073
230	0x3d3e21b6	0.046418868
231	0xbe00640f	-0.1253817
232	0xbda6f3f2	-0.081519976
233	0x3c3d069f	0.011537223
234	0x3cf9edcb	0.030508896
235	0x3cc2334f	0.023706106
236	0x3d2f4d49	0.042798314
237	0x3d8758f2	0.06608762
238	0x3cd70819	0.026248978
239	0x3ddc93cc	0.107703775
240	0xbd5b9600	-0.053609848
241	0xbd8ff594	-0.07029262
242	0xbdda4ff6	-0.106597826
243	0x3c9c7488	0.019098535
244	0xbdb91d9a	-0.09038849
245	0x3d9e777c	0.077376336
246	0x3cf2ad83	0.029623752
247	0x3d6a1f88	0.057158977
248	0x3ddf2361	0.1089542
249	0xbb09b702	-0.0021013622
250	0xbd390d33	-0.045178603
251	0xbdd5ca41	-0.104389675
252	0x3d435309	0.04768661
253	0xbcbf3cc5	-0.023344407
254	0xbd641fd0	-0.0556944
255	0x3ce7c3b9	0.02829157

block2.conv2.bias f4 [8]
0	0xbdd71587	-0.10502153
1	0xbd6b63d0	-0.057468235
2	0xbdf979d7	-0.12181442
3	0x3e02db07	0.12778865
4	0x3c97f8e3	0.018551296
5	0xbdc15f09	-0.09441955
6	0xbd654cd9	-0.05598149
7	0x3db6d344	0.089270145

block2.conv3.weight f4 [8, 8, 3, 3]
0	0x3c8d1d04	0.01722575
1	0xbd738b99	-0.059459303
2	0x3dc5ad63	0.096522115
3	0xbdc9c2a4	-0.09851578
4	0x3d1fec40	0.039043665
5	0xbc2dfb9f	-0.010619073
6	0x3d6c3981	0.057672027
7	0xbdb25be7	-0.08708935
8	0xbda4aef5	-0.08041183
9	0x3c72f65b	0.0148292435
10	0xbd11a628	-0.03555885
11	0x3df177b9	0.117904134
12	0xbc703e91	-0.0146633545
13	0xbdfc5732	-0.12321319
14	0x3c887dbe	0.016661521
15	0xbd0ec975	-0.034860093
16	0xbe120b8b	-0.14262216
17	0xbda1139b	-0.078650676
18	0x3d1f6001	0.038909916
19	0xbc2a6453	-0.010399896
20	0x3dbd0fe1	0.09231544
21	0x3a36350e	0.0006950655
22	0x3d8351fc	0.06412122
23	0x3da75b12	0.08171667
24	0xbd68ae78	-0.05680701
25	0x3d30a776	0.043128453
26	0xbe24a295	-0.16077645
27	0x3c5e6091	0.013572828
28	0xbd7baf49	-0.06144646
29	0x3d64ffdd	0.055908073
30	0x3dbed8d1	0.09318698
31	0x3d9a09d3	0.07521405
32	0xbc313923	-0.010816845
33	0x3c36a484	0.011147622
34	0xbdef617a	-0.11688514
35	0xbb44fc77	-0.0030057707
36	0xbd326f5f	-0.043563243
37	0x3d09fe48	0.033689767
38	0x3daa837e	0.083258614
39	0xbe0aab36	-0.13541874
40	0x3cef21fc	0.02919101
41	0xbd80eb23	-0.06294849
42	0xbcc47393	-0.023980891
43	0xbd4c1563	-0.049825083
44	0xbcb47481	-0.02202821
45	0x3db9e25e	0.09076379
46	0x3d066a95	0.03281649
47	0x3d90fc96	0.07079427
48	0xbbd76173	-0.006572896
49	0x3d765be5	0.06014623
50	0x3dbb310f	0.091402166
51	0x3e0dc330	0.1384399
52	0xbd106541	-0.035252813
53	0xbd80a6fd	-0.062818505
54	0x3d583ac5	0.052790422
55	0x3db2ab0c	0.08724031
56	0xbdd58c5f	-0.10427164
57	0xbdafcefe	-0.085844025
58	0xbd5793f6	-0.05263134
59	0xbdc83524	-0.09775761
60	0x3df7ac01	0.12093354
61	0x3c9fe025	0.01951606
62	0x3c12af1e	0.008952884
63	0x3d373ebc	0.044737563
64	0x3dbb4412	0.09143843
65	0xbd2f07f5	-0.042732198
66	0x3d83be4a	0.06432779
67	0xbdff0ecc	-0.12453994
68	0x3dafb292	0.085789815
69	0x3d344cd7	0.044018593
70	0xb92a5e80	-0.00016247667
71	0x3db11dfd	0.08648298
72	0x3dbe5101	0.09292794
73	0x3dd01ccb	0.10161742
74	0x3de8b809	0.11363227
75	0x3e0e1b5e	0.13877627
76	0x3ce7cf31	0.028297039
77	0xbc612be1	-0.013743372
78	0xbde12c5e	-0.109947905
79	0x3da17bda	0.07884951
80	0x3caf045f	0.021364389
81	0xbd86532f	-0.06558835
82	0x3d87a1e4	0.06622675
83	0x3c231182	0.009952905
84	0x3df16edd	0.117887236
85	0xbd871de0	-0.06597495
86	0x3dd6521a	0.104648784
87	0x3d64dacb	0.05587272
88	0xbc890460	-0.016725719
89	0xbda70e01	-0.08156968
90	0x3d9c5e35	0.07635156
91	0x3e007192	0.12543324
92	0x3d6f9a08	0.058496505
93	0x3de89462	0.11356427
94	0x3d83e9a4	0.06441048
95	0xbdea0698	-0.11427039
96	0x3bf27291	0.0073989113
97	0xbd9c297d	-0.07625101
98	0x3d40cb55	0.047068913
99	0xbd1b43d4	-0.037906483
100	0x3e167d6d	0.14696284
101	0xbbc25dca	-0.0059315907
102	0xba138164	-0.00056268857
103	0xbd5f4e1b	-0.054517847
104	0xbcc8aa6d	-0.024495328
105	0xbdfcdd33	-0.12346878
106	0xbda33489	-0.07969005
107	0x3d402686	0.04691174
108	0xbd821288	-0.06351191
109	0xbdbfb30b	-0.093603216
110	0xbdf7ee68	-0.12106019
111	0x3dcca4c9	0.09992368
112	0xbd88d92e	-0.06682049
113	0x3ca38477	0.019960625
114	0xbcd2ff45	-0.025756488
115	0x3d94e245	0.0726972
116	0xbd9c579d	-0.076338984
117	0x3c7e09fa	0.015505308
118	0x3cda2079	0.026626812
119	0x3d09bbad	0.033626247
120	0x3e1f5b91	0.15562274
121	0x3c9902f2	0.018678162
122	0x3de07f48	0.10961777
123	0xbd772c63	-0.060345065
124	0xbdc10005	-0.09423832
125	0x3c9b6df1	0.018973323
126	0x3d8371f2	0.06418218
127	0x3da254ea	0.07926352
128	0x3db6f4dd	0.08933423
129	0x3b31b827	0.002711782
130	0x3d1ce489	0.038303886
131	0x3b096185	0.0020962667
132	0xbbce291e	-0.0062915226
133	0x3d43ee38	0.047834605
134	0xbda799ff	-0.08183669
135	0xbd8e089b	-0.06935235
136	0xbda219c1	-0.079150684
137	0x3d1fa5de	0.038976543
138	0x3d308c80	0.04310274
139	0xbd2489ba	-0.04017041
140	0x3a8f6689	0.0010940592
141	0x3c41e98a	0.011835465
142	0x3b15e485	0.0022871804
143	0x3d696fa3	0.05699123
144	0x3d087e85	0.033323783
145	0x3d54cc8f	0.051952895
146	0xbd183a4e	-0.03716498
147	0x3c27d9e9	0.010244825
148	0xbd83730d	-0.064184286
149	0xbc7ed9f1	-0.015554891
150	0x3e102c76	0.1407946
151	0xbddf950e	-0.10917102
152	0x3c005674	0.007833112
153	0x3d88beec	0.066770405
154	0xbda34dd6	-0.079738304
155	0x3dec65e9	0.11542875
156	0xbdecfa43	-0.11571171
157	0x3c426700	0.011865377
158	0x3d9f10a8	0.07766849
159	0xbcd46182	-0.025925402
160	0xbba88ae0	-0.0051435083
161	0x3dca2bf2	0.09871663
162	0xbd8f5d5d	-0.070002295
163	0x3dc6c240	0.09705019
164	0x3c8dd7b0	0.017314762
165	0xbdba1c74	-0.09087458
166	0xbd4c88d0	-0.049935162
167	0xbc287f46	-0.010284251
168	0x3d05e132	0.032685466
169	0x3da3a8f6	0.07991211
170	0xbd816912	-0.06318869
171	0x3caaccef	0.020849673
172	0xbb83cdb3	-0.004022324
173	0xbd998e38	-0.07497829
174	0x3b5ef36a	0.0034019598
175	0xbd4afe85	-0.049559135
176	0x3dbf888b	0.093522154
177	0xbd590e14	-0.05299194
178	0xbcb09020	-0.0215531
179	0x3dbce5dc	0.0922353
180	0xbd596d89	-0.053082976
181	0xbd812394	-0.06305614
182	0xbd80b638	-0.062847555
183	0x3d6415d4	0.05568488
184	0x3cfe05ee	0.031008687
185	0xbdd02178	-0.10162634
186	0x3d46ded9	0.048552368
187	0x3d922e46	0.07137732
188	0x3dd594bf	0.10428762
189	0xbd13c463	-0.03607596
190	0xbdf4c257	-0.1195113
191	0xbcc52c4c	-0.024068974
192	0x3cd69c4b	0.026197573
193	0x3db72f3c	0.08944556
194	0x3daa57c2	0.0831752
195	0x3c6824b4	0.014168907
196	0xbd490e89	-0.049086127
197	0xbd14908d	-0.036270667
198	0xbd7dee8b	-0.06199507
199	0x3da8bd90	0.08239281
200	0xbd8956be	-0.06705998
201	0xbdeeb19c	-0.1165497
202	0x3c2890b8	0.01028841
203	0xbe02b07a	-0.12762633
204	0xbd4d18e0	-0.05007255
205	0xbe05cbbc	-0.13066
206	0xbcc6a1d7	-0.024247093
207	0x3df0bc42	0.11754657
208	0x3dafe221	0.085880525
209	0x3c17bee4	0.00926182
210	0xbd0ee2ac	-0.03488414
211	0xbe041ff6	-0.12902817
212	0xbdcd93f8	-0.100379884
213	0xbcd452e0	-0.025918424
214	0x3de3b68a	0.11118801
215	0x3cde7546	0.02715553
216	0xbd16fc46	-0.03686168
217	0xbc80c7ee	-0.015720334
218	0xbda926bc	-0.08259341
219	0x3d9f5042	0.0777898
220	0xbdbfafc6	-0.09359698
221	0xbcf65f2a	-0.030074675
222	0x3d246f64	0.040145293
223	0x3db4f8f5	0.08836547
224	0x3d286a27	0.04111686
225	0xbc54a8db	-0.012979711
226	0x3dbd82d6	0.092534706
227	0x3da65fdb	0.08123752
228	0xbd2b2813	-0.041786265
229	0xbdac019f	-0.08398747
230	0x3deb01e9	0.11474974
231	0x3cc86fdd	0.024467403
232	0x3c0bd870	0.008535489
233	0x3d556181	0.05209494
234	0x3e008ef4	0.12554532
235	0xbdf261dc	-0.118350714
236	0xbd60e76e	-0.05490821
237	0x3ceb7513	0.028742349
238	0x3d53f304	0.05174543
239	0x3e0f7622	0.14009908
240	0xbc8737f5	-0.016506175
241	0x3d6b0028	0.057373196
242	0x3d2fe365	0.04294147
243	0xbd46d20f	-0.04854017
244	0x3d6d63cf	0.057956513
245	0x3da462f2	0.08026685
246	0x3dd40914	0.10353294
247	0xbcf6a2fc	-0.030107014
248	0xbe1e581b	-0.15463297
249	0xbd76a29c	-0.06021367
250	0xbb61c3e5	-0.0034449038
251	0xbd47fbc7	-0.048824098
252	0xbdddcc0d	-0.10829935
253	0xbd078a6b	-0.03309099
254	0xbdb96558	-0.09052533
255	0xbda1f107	-0.079073004

block2.conv3.bias f4 [8]
0	0xbcddcec7	-0.027076138
1	0x3d96105b	0.07327338
2	0xbdc7adf4	-0.09749976
3	0xba272c83	-0.0006377177
4	0xbd3dc93c	-0.04633449
5	0x3d512434	0.051059917
6	0xbd619144	-0.055070177
7	0x3dc26fa6	0.094939515

block2.bn2.weight f4 [8]
0	0x3f7e268f	0.99277586
1	0x3f81e818	1.0148954
2	0x3f7bbefc	0.98338294
3	0x3f82c096	1.0215023
4	0x3f7e37dc	0.99303985
5	0x3f7ee835	0.9957307
6	0x3f72c653	0.9483387
7	0x3f7b59f8	0.98184156

block2.bn2.bias f4 [8]
0	0x3ce408cf	0.027836232
1	0xbd1243d5	-0.03570922
2	0xbc7bb218	-0.015362285
3	0xbcad9a8b	-0.021191856
4	0xbd270166	-0.040772818
5	0xbc5cc770	-0.013475284
6	0xbb90cb2e	-0.004418752
7	0xbbe37a29	-0.006942053

block2.bn2.running_mean f4 [8]
0	0xbdf60719	-0.120130725
1	0x3b614d8e	0.0034378502
2	0xbda4ea8f	-0.08052551
3	0xbc9e3f6d	-0.019317353
4	0xbcdab696	-0.026698392
5	0x3d272237	0.040804114
6	0xbdeb5a44	-0.11491826
7	0x3db071cc	0.08615455

block2.bn2.running_var f4 [8]
0	0x3dcf8d87	0.10134416
1	0x3e15668f	0.14589904
2	0x3dd842d1	0.10559619
3	0x3daddaf4	0.084890276
4	0x3e0aac60	0.13542318
5	0x3df6b70c	0.12046632
6	0x3defb21f	0.11703896
7	0x3e24bd64	0.16087872

block2.downsample.0.weight f4 [8, 4, 3, 3]
0	0x3cf22d8f	0.02956274
1	0xbdd95b3f	-0.10613107
2	0x3d8b80af	0.06811654
3	0x3bf5ee6c	0.0075052287
4	0x3e120a71	0.14261796
5	0x3db0afdd	0.08627293
6	0xbbc85179	-0.006113228
7	0x3e01c8a1	0.1267419
8	0x3da11c9a	0.078667834
9	0xbd398a23	-0.045297753
10	0x3da61c1c	0.0811083
11	0x3cd37b2e	0.025815573
12	0x3d4b02be	0.049563162
13	0x3d45c1aa	0.048280396
14	0x3d020075	0.031738717
15	0x3bdc5e09	0.006725077
16	0xbdf1d45d	-0.11808083
17	0x3d8ea2f8	0.069646776
18	0x3c7b399b	0.015333558
19	0x3d020604	0.03174402
20	0xbb62d698	-0.003461277
21	0xbe0b20cd	-0.13586731
22	0x3d476664	0.04868163
23	0x3e0d6e0d	0.13811512
24	0x3dc011bb	0.09378382
25	0x3d2f5c26	0.04281249
26	0x3df85d97	0.12127226
27	0xbe07eb7a	-0.13273421
28	0x3e32f747	0.17477141
29	0x3d80ecda	0.06295176
30	0xbe03d0be	-0.12872598
31	0x3d4c5fd6	0.049896084
32	0x3e270644	0.16310984
33	0x3da2fdd6	0.079585716
34	0xbd3f80bd	-0.046753634
35	0x3ded9d01	0.11602212
36	0xbdafd734	-0.085859686
37	0x3d454b97	0.04816779
38	0xbe310284	-0.17286116
39	0x3df5c9ce	0.12001382
40	0x3db6042a	0.08887513
41	0x3c406f90	0.011745349
42	0x3d830dff	0.06399154
43	0x3da873dd	0.08225224
44	0x3def7342	0.116919056
45	0x3c795e0a	0.015220175
46	0xbd94349c	-0.07236597
47	0xbd7dddbc	-0.06197904
48	0xbe55c07b	-0.20874207
49	0xbd56d000	-0.052444458
50	0x3d61fea1	0.055174474
51	0xbd802c3c	-0.06258437
52	0x3be974ca	0.007124518
53	0xbdc1a4d2	-0.09455265
54	0x3c09245c	0.008370485
55	0xbe0fc734	-0.14040834
56	0xbe006da3	-0.12541823
57	0x3df13e17	0.11779421
58	0x3dbc803f	0.092041485
59	0x3d3c2aca	0.045939244
60	0x3d5ab763	0.053397547
61	0x3d7ba6b2	0.06143827
62	0x3d190215	0.0373555
63	0x3d8355d5	0.064128555
64	0x3daf034d	0.085455514
65	0x3db53c0f	0.08849346
66	0x3d945365	0.07242469
67	0x3d96a8aa	0.07356389
68	0x3d9f23c0	0.07770491
69	0x3d777e92	0.06042344
70	0x3d072714	0.032996252
71	0xbd987f5c	-0.07446167
72	0x3dd6b3d0	0.10483515
73	0xbdcc8ea1	-0.09988142
74	0xbd290fe3	-0.041274916
75	0xbdfc4e2f	-0.123196
76	0xbe17f247	-0.14838515
77	0x3ce17f04	0.027526386
78	0xbb7e5409	-0.0038807413
79	0x3df7127b	0.12064072
80	0xbe25f955	-0.16208394
81	0xbd0ce909	-0.034401927
82	0xbb8c3d41	-0.004279763
83	0x3dfce20a	0.12347801
84	0xbc072e03	-0.008250716
85	0xbd9a16d0	-0.075238824
86	0xbd7e445f	-0.062076923
87	0x3d98e5aa	0.0746568
88	0xbe3be2b0	-0.18348193
89	0xbdc4bb79	-0.0960607
90	0x3dba021b	0.09082433
91	0xbe265058	-0.16241586
92	0xbd8095f8	-0.06278604
93	0x3e2ddec6	0.16979513
94	0x3cbe9fd2	0.023269568
95	0xbd9a2613	-0.07526793
96	0x3e01d3cf	0.12678455
97	0x3dc493ea	0.09598525
98	0x3ddfa99d	0.10921023
99	0xbe04664f	-0.12929653
100	0xbcb3977e	-0.021922823
101	0x3e043501	0.12910844
102	0xbc9dbc42	-0.019254807
103	0x3d84cf80	0.0648489
104	0x3d54ba5e	0.051935546
105	0xbda7aba2	-0.08187033
106	0x3da200eb	0.07910331
107	0xbdf17d8a	-0.11791523
108	0x3dd704e7	0.10498982
109	0xbe043abd	-0.12913032
110	0xbddb6d79	-0.107142396
111	0xbe176451	-0.14784361
112	0xbe12ca19	-0.14334907
113	0x3e0a92c9	0.13532557
114	0xbc03a478	-0.008034818
115	0xbcbd9199	-0.023140715
116	0xbdb94e45	-0.09048132
117	0xbc5939b4	-0.013258386
118	0x3dcf9b00	0.10136986
119	0xbaa7da09	-0.0012806068
120	0x3df702f2	0.12061109
121	0x3d44a221	0.04800618
122	0xbdf30d8b	-0.118678175
123	0xbe2289f2	-0.15872934
124	0xbcef81a6	-0.029236626
125	0xbe0c33fe	-0.13691708
126	0x3d408341	0.047000173
127	0x3de1943c	0.110146016
128	0xbdc7fd24	-0.097650796
129	0xbcf57721	-0.029964032
130	0x3d4af162	0.049546607
131	0x3c8869c8	0.016652003
132	0x3dc247f6	0.09486382
133	0xbc0cf0d8	-0.0086023435
134	0xbdada665	-0.08479003
135	0xbe0c1925	-0.13681467
136	0xbe344ac8	-0.17606652
137	0xbcdb638f	-0.026780872
138	0x3dcbb508	0.09946638
139	0x3dc3681b	0.09541341
140	0xba94f0c3	-0.0011363256
141	0x3d4c0818	0.049812406
142	0xbb4ee0a3	-0.0031567
143	0xbca25331	-0.01981506
144	0x3d7894f4	0.060688928
145	0xbe1db3fb	-0.15400688
146	0xbd1cf9cb	-0.03832416
147	0xbdd5485f	-0.10414194
148	0x3d0e581a	0.03475199
149	0x3d9a1a64	0.07524565
150	0xbd9ebcdb	-0.07750865
151	0x3ddbd4b8	0.10733932
152	0x3da7805a	0.08178778
153	0xbd4951a9	-0.049150143
154	0xbd8187b7	-0.06324714
155	0xbcf3fc38	-0.029783353
156	0xba044750	-0.0005046027
157	0x3cde5c25	0.027143547
158	0xbd88877d	-0.06666467
159	0xbaf0ee59	-0.001838158
160	0x3d9c3202	0.07626726
161	0x3dd286a5	0.10279588
162	0x3dd93297	0.10605352
163	0xbe12f4ce	-0.14351198
164	0x3e0005b1	0.12502171
165	0xbdbe7f69	-0.09301645
166	0x3d7da6b0	0.061926544
167	0x3e1617e9	0.14657559
168	0x3c190e1e	0.009341745
169	0xbe1362ce	-0.1439316
170	0xbdc29932	-0.09501876
171	0xbd0457aa	-0.032310165
172	0x3cedf449	0.029047148
173	0x3b7efa8e	0.0038906666
174	0x3e043f11	0.12914683
175	0x3d54910d	0.051896144
176	0x3c95fbdc	0.018308572
177	0x3d77d85f	0.060509082
178	0xbdc5e171	-0.0966214
179	0x3d2537d5	0.04033645
180	0x3df56e4c	0.11983928
181	0x3d4cb09d	0.04997312
182	0x3d8f9cb8	0.070123136
183	0xbe38165c	-0.1797728
184	0xbdb7b8b4	-0.08970776
185	0x3e1a2f51	0.15057112
186	0x3dd7dd7e	0.10540293
187	0xbd125a5d	-0.03573071
188	0x3cd2fb5f	0.025754629
189	0xbe172b89	-0.14762701
190	0x3df49a4b	0.119434915
191	0xbe2c3903	-0.16818623
192	0x3dd274ec	0.10276207
193	0x3dbf22f7	0.09332841
194	0x3cd8a079	0.026443707
195	0xbd3ec88d	-0.04657798
196	0xbd089594	-0.033345774
197	0xbdb4b91e	-0.08824371
198	0xbdac9365	-0.08426551
199	0xbe035b76	-0.12827858
200	0x3e00d686	0.12581834
201	0x3cfef76d	0.031123841
202	0x3deba54e	0.11506139
203	0xbe0203b2	-0.12696722
204	0xbda5abff	-0.08089446
205	0xbe422459	-0.18959178
206	0x3b9101f2	0.0044252807
207	0x3cd54a0b	0.026036283
208	0xbcc47029	-0.023979263
209	0xbccf10d5	-0.02527658
210	0x3da745b9	0.081675954
211	0x3da41aaa	0.08012898
212	0xbd225e55	-0.039640743
213	0x3e3890c1	0.18023969
214	0x3d97d307	0.07413297
215	0xbcf58efd	-0.029975409
216	0xbda02fe4	-0.078216344
217	0xbde10a64	-0.1098831
218	0x3d86196b	0.06547817
219	0x3e32f424	0.17475945
220	0x3c857f82	0.016296152
221	0xbbac1c2c	-0.005252382
222	0xbe19f632	-0.15035322
223	0x3e3d005a	0.18457165
224	0xbd4f8b51	-0.05066997
225	0x3dec4d10	0.11538136
226	0x3c16a691	0.009194986
227	0x3be68bdf	0.007035717
228	0x3de6ffa5	0.11279229
229	0x3e026505	0.12733848
230	0x3b8b6e73	0.00425511
231	0x3dd9be28	0.106319726
232	0xbdb4e295	-0.088322796
233	0x3dfcded9	0.12347192
234	0xbdc5d8c8	-0.09660488
235	0x3d811059	0.06301946
236	0xbd661663	-0.056173693
237	0x3e39d1ac	0.1814639
238	0x3e221a25	0.15830286
239	0xbd5c166c	-0.05373232
240	0x3cac7d2c	0.02105578
241	0x3ba2961b	0.0049617416
242	0xbdc29464	-0.095009595
243	0xbccd37ad	-0.025050962
244	0x3de1a30a	0.11017425
245	0xbd39d0be	-0.045365088
246	0x3cb90944	0.022587426
247	0xbdb50cb3	-0.08840313
248	0xbe16cd69	-0.14726795
249	0xbc5acca0	-0.01335445
250	0x3d260bc8	0.04053858
251	0xbcc0b92c	-0.023525797
252	0xbb829b2b	-0.0039857826
253	0x3d4bbed9	0.049742553
254	0x3dd990f9	0.106233545
255	0xbdf56982	-0.11983015

block2.downsample.0.bias f4 [8]
0	0xbd7a928f	-0.061174925
1	0xbe25d4a7	-0.16194402
2	0xbe0d957e	-0.13826558
3	0x3cb8949d	0.022531802
4	0xbe1c7ee6	-0.15282783
5	0x3dceae4f	0.100918405
6	0xbe10719e	-0.14105842
7	0x3d5265b1	0.05136651

block2.downsample.1.weight f4 [8]
0	0x3f85a403	1.0440677
1	0x3f8249f7	1.0178822
2	0x3f821fdb	1.0165972
3	0x3f80d598	1.0065184
4	0x3f86caab	1.0530599
5	0x3f7ec213	0.99514884
6	0x3f808d27	1.0043076
7	0x3f7f6912	0.997697

block2.downsample.1.bias f4 [8]
0	0x3ce408cf	0.027836232
1	0xbd1243d5	-0.03570922
2	0xbc7bb218	-0.015362285
3	0xbcad9a8b	-0.021191856
4	0xbd270166	-0.040772818
5	0xbc5cc770	-0.013475284
6	0xbb90cb2e	-0.004418752
7	0xbbe37a29	-0.006942053

block2.downsample.1.running_mean f4 [8]
0	0x3d963561	0.073344
1	0x3c9a6927	0.018848969
2	0xbee7d209	-0.45277432
3	0xbd782d2a	-0.060589947
4	0x3d2308ff	0.0398035
5	0x3ec6ee5b	0.38853726
6	0xbe0504e4	-0.12990147
7	0x3de48a4b	0.1115919

block2.downsample.1.running_var f4 [8]
0	0x3efa1ac2	0.4884854
1	0x3f3355bd	0.700527
2	0x3f29c979	0.6632305
3	0x3f24b98f	0.6434564
4	0x3eb9b4be	0.36270708
5	0x3ecef5c8	0.4042189
6	0x3f12d483	0.5735552
7	0x3f7120ba	0.9419056
