checkpoints/checkpointVAE_trained.pth (torch, 287330 bytes, 181 tensors)

conv1.weight f4 [2, 1, 4, 4]
0	0xbe194c9b	-0.14970629
1	0x3d2159c4	0.039392248
2	0x3dc9ea5d	0.098591544
3	0x3d4b8ef3	0.049696874
4	0x3dbac37a	0.091193154
5	0xbe3ebae8	-0.18625987
6	0x3e008e51	0.1255429
7	0xbe6c9914	-0.2310527
8	0xbd889e3e	-0.06670807
9	0x3e522db8	0.20525253
10	0x3d14410e	0.036194853
11	0x3dfb7815	0.12278763
12	0x3dc887e7	0.09791546
13	0x3cb8d9da	0.022564817
14	0x3c18023b	0.009277876
15	0x3b378a7f	0.0028006134
16	0xbe3fcc22	-0.18730214
17	0x3c73caa9	0.014879861
18	0xbe2db730	-0.16964412
19	0x3d301bb4	0.04299517
20	0x3d46ac23	0.048504006
21	0xbe5d8e7f	-0.21636389
22	0x3de65364	0.11246374
23	0xbde6717d	-0.11252115
24	0x3cfeedfb	0.031119337
25	0x3dd4dcd2	0.10393681
26	0x3d5c33ba	0.053760268
27	0xbd4cb678	-0.049978703
28	0xbe04367c	-0.12911409
29	0x3d8a9e9d	0.06768534
30	0x3d00904b	0.03138761
31	0xbe42e1b3	-0.1903141

conv1.bias f4 [2]
0	0xbe61e67f	-0.22060584
1	0xbe516285	-0.20447738

block1.conv1.weight f4 [4, 2, 3, 3]
0	0xbe3f6367	-0.18690263
1	0x3c8847a5	0.016635725
2	0xbde63efe	-0.112424836
3	0xbdb8872b	-0.09010156
4	0xbd52dbab	-0.051479023
5	0xbdbe4d13	-0.092920445
6	0x3e40f42a	0.18843141
7	0x3e4ab215	0.19794495
8	0x3ddf5e5c	0.109066695
9	0xbda30e99	-0.07961769
10	0xbe0aadb1	-0.1354282
11	0xbe1dfbd1	-0.15428092
12	0x3e404504	0.18776327
13	0xbe4a3197	-0.1974548
14	0xbe44a5ff	-0.19203947
15	0xbe6f3a05	-0.23361976
16	0x3e4b26f8	0.19839084
17	0xbc93ea67	-0.018056108
18	0x3d9e28a7	0.077225976
19	0xbd9d945d	-0.07694314
20	0xbe3e11ed	-0.18561526
21	0x3e2d7c28	0.16941893
22	0xbdc15974	-0.0944089
23	0x3e17aa2e	0.14811012
24	0xbe0f5078	-0.1399554
25	0xbc50bf05	-0.012740855
26	0xbe497803	-0.19674687
27	0x3dddd8c7	0.108323626
28	0xbe09eb81	-0.13468744
29	0x3d03460f	0.032049235
30	0xbd8518c7	-0.064988665
31	0xbe22addf	-0.15886639
32	0xbe7f6256	-0.24939856
33	0x3cedf36b	0.029046735
34	0xbd611948	-0.05495575
35	0xbd883711	-0.06651128
36	0x3b4b37a9	0.0031008518
37	0xbde4b557	-0.111674
38	0xbe042b68	-0.12907183
39	0xbe5d1a8c	-0.21592158
40	0xbe3d8293	-0.18506841
41	0xbe0a7a1e	-0.13523147
42	0xbd4de989	-0.050271545
43	0xbd2744f4	-0.040837243
44	0x3ce55f35	0.0279995
45	0xbdbf56ed	-0.09342752
46	0xbe0f8e91	-0.14019229
47	0x3e402d41	0.18767263
48	0x3cddc499	0.027071284
49	0x3e1d75d3	0.15376978
50	0xbc7679cb	-0.015043686
51	0xbdd331a4	-0.103122026
52	0x3e27c6dd	0.16384454
53	0xbe384175	-0.1799372
54	0xbe6bb0d7	-0.23016678
55	0xbe423398	-0.18964994
56	0xbe5b742f	-0.2143104
57	0x3cea70ed	0.0286183
58	0xbda72b4b	-0.08162554
59	0x3d9a1670	0.07523811
60	0xbe260d02	-0.162159
61	0xbe3dc1ec	-0.18531007
62	0x3d84de4a	0.06487711
63	0x3e542d1c	0.20720333
64	0x3da22b07	0.07918363
65	0xbe14ebb0	-0.14543033
66	0x3dfbbaa8	0.12291461
67	0xbcfab7e4	-0.030605264
68	0xbdb15e1f	-0.0866053
69	0x3dd580cf	0.10424959
70	0x3e67f9ad	0.22653838
71	0x3e377916	0.17917284

block1.conv1.bias f4 [4]
0	0x3d8a1414	0.06742111
1	0xbe4919c3	-0.19638734
2	0xbe5abda6	-0.21361408
3	0x3e31cde5	0.17363699

block1.bn1.weight f4 [4]
0	0x3f8176dc	1.0114398
1	0x3f82f53e	1.0231092
2	0x3f7a87a4	0.9786322
3	0x3f7ed5a4	0.9954474

block1.bn1.bias f4 [4]
0	0x3c6b8e66	0.014377212
1	0x3c959ef9	0.01826428
2	0xbbb4df22	-0.0055197636
3	0x3bbcd327	0.005762476

block1.bn1.running_mean f4 [4]
0	0x3eb3c4c6	0.35111064
1	0x3dc0bdc6	0.094111964
2	0xbdd5244f	-0.10407316
3	0xbb64555e	-0.0034840922

block1.bn1.running_var f4 [4]
0	0x3d15cb7d	0.036571015
1	0x3cb51337	0.022103889
2	0x3c5540bb	0.013015921
3	0x3d785d05	0.060635585

block1.conv2.weight f4 [4, 4, 3, 3]
0	0xba016ed6	-0.00049374753
1	0xbcf80689	-0.030276554
2	0xbcac2d80	-0.02101779
3	0x3d035524	0.03206362
4	0x3df298bf	0.1184554
5	0x3e138246	0.14405164
6	0x3d67a3e9	0.0565528
7	0xbe14c405	-0.145279
8	0xbd994bcf	-0.074851625
9	0xbde70f05	-0.112821616
10	0x3d2d39f3	0.042291593
11	0x3b68c388	0.0035516936
12	0x3de94752	0.113905564
13	0xbe1da505	-0.15394981
14	0x3deeeb0c	0.116659254
15	0x3d53f5da	0.051748134
16	0x3d80569f	0.06266522
17	0x3dd95e54	0.10613695
18	0x3d912c25	0.07088498
19	0x3d2b73a1	0.04185832
20	0xbdfb27b1	-0.1226343
21	0xbe1652ce	-0.14680025
22	0xbe091952	-0.13388565
23	0xbde4c817	-0.111709766
24	0xbdd7bf15	-0.10534493
25	0xbdab6dec	-0.08370575
26	0xbe231de0	-0.15929365
27	0xbd31df5e	-0.04342591
28	0xbdd8fdef	-0.10595309
29	0x3e138e8e	0.14409849
30	0xbe0ef944	-0.13962275
31	0xbe0283ee	-0.1274564
32	0x3d36120f	0.044450816
33	0xbe0cd417	-0.13752781
34	0x3c482942	0.012216868
35	0x3dec4a0b	0.1153756
36	0x3cc84cd9	0.024450706
37	0x3d4f612e	0.050629787
38	0xbcfd837e	-0.03094649
39	0xbd968965	-0.07350425
40	0x3ce9e0d0	0.028549582
41	0xbae2912f	-0.00172857
42	0xbd6694e4	-0.056294337
43	0xbd1bc71e	-0.03803169
44	0xbd7b94e0	-0.061421275
45	0x3dc7d9da	0.09758349
46	0x3c2d1128	0.010563172
47	0x3d8c7ef4	0.06860152
48	0xbdb4938a	-0.08817203
49	0xbc65fd42	-0.014037432
50	0x3d77f321	0.0605346
51	0x3c900c11	0.017583879
52	0xbdb5df5f	-0.08880495
53	0x3e03f820	0.12887621
54	0xbd33576b	-0.04378454
55	0xbe063fa2	-0.13110211
56	0xbdb2e3e4	-0.08734873
57	0xbc8a4243	-0.0168773
58	0x3d7d97c5	0.061912317
59	0xbe21dbf8	-0.15806568
60	0x3dbc1355	0.09183375
61	0xbdd035b4	-0.10166493
62	0xbd72a0af	-0.05923527
63	0x3dd13a19	0.102161594
64	0xbd5b15fe	-0.05348777
65	0xbd3d118a	-0.046159305
66	0x3dc18722	0.09449603
67	0xbd9ce7cb	-0.076613985
68	0xbe27902b	-0.1636359
69	0x3ddf0763	0.10890081
70	0x3be5c5ed	0.00701212
71	0xbe00e7f3	-0.12588482
72	0x3e056a31	0.1302879
73	0xbe192a1e	-0.14957473
74	0x3c9a9b8b	0.018872997
75	0x3e27ffa3	0.16406111
76	0x3d9cae9e	0.07650493
77	0xbdac8b89	-0.08425052
78	0x3e1e4209	0.15454878
79	0x3b6795d1	0.00353371
80	0xbd3a720c	-0.04551892
81	0xbda82be5	-0.08211497
82	0x3db8ca7e	0.09022997
83	0xbd6eea9e	-0.058329217
84	0x3e2a1517	0.16609608
85	0x3d331ebc	0.043730482
86	0xbd12f2a5	-0.035875935
87	0x3e1f7743	0.15572838
88	0x3dfc25fa	0.12311931
89	0x3e011e89	0.12609304
90	0xbd87bf99	-0.06628341
91	0xbd9a6db6	-0.07540457
92	0x3c624089	0.013809332
93	0x3d95b3fb	0.07309719
94	0x3d46d95e	0.04854714
95	0x3e0cbef5	0.1374472
96	0x3df9a3b4	0.12189427
97	0x3e12d283	0.14338116
98	0xbd22bbb7	-0.0397298
99	0x3e231938	0.15927589
100	0x3cb267b5	0.021777967
101	0x3e167aa5	0.14695223
102	0x3bc4a1c9	0.0060007316
103	0xbe006e4e	-0.12542078
104	0xbe18f9fe	-0.14939114
105	0xbc502f90	-0.012706652
106	0xbda0e608	-0.07856375
107	0x3e136538	0.1439408
108	0xbe2c0ba5	-0.16801317
109	0xbd755fc1	-0.05990577
110	0xbd6c757a	-0.057729222
111	0xbe206964	-0.15665203
112	0x3c7f265d	0.015573111
113	0xbe4ecbf6	-0.20194992
114	0x3c295aa4	0.010336552
115	0xbcf301f7	-0.029664023
116	0xbdf86381	-0.12128354
117	0xbd972a3b	-0.07381102
118	0xbe27e88a	-0.163973
119	0x3e0f9d6b	0.14024894
120	0xbd961661	-0.07328487
121	0xbe2c223c	-0.16809934
122	0xbc26f6fb	-0.010190721
123	0xbe31eebb	-0.17376225
124	0xbcfb3217	-0.030663533
125	0xbe181706	-0.14852533
126	0x3d160af9	0.036631558
127	0x3ce3bdc8	0.027800456
128	0xbdddf05d	-0.10836861
129	0x3d07a088	0.03311208
130	0x3ddd0496	0.1079189
131	0x3d59b1b2	0.05314798
132	0xbdec77ee	-0.11546312
133	0xbd57b429	-0.05266205
134	0xbd47a422	-0.048740514
135	0x3e294323	0.16529517
136	0x3cd9b074	0.026573397
137	0x3e2befc3	0.1679068
138	0xbd51a78b	-0.051185172
139	0xbda9a938	-0.08284229
140	0xbdd76b1f	-0.105184786
141	0x3c8a0cb6	0.016851764
142	0xbd4e1eb6	-0.050322257
143	0xbc8c1c3a	-0.017103303

block1.conv2.bias f4 [4]
0	0xbd5d2bfc	-0.053997025
1	0x3da40648	0.080090106
2	0xbe0c9795	-0.13729699
3	0xbe1743d5	-0.1477197

block1.conv3.weight f4 [4, 4, 3, 3]
0	0x3c47296a	0.01215587
1	0xbdfe380a	-0.12413032
2	0xbda1de2d	-0.07903705
3	0xbdb4862c	-0.08814654
4	0x3d199851	0.037498776
5	0xbdcc6ac6	-0.09981303
6	0xbd42f49d	-0.047596563
7	0xbdd7f0f8	-0.10544008
8	0x3dabfa0c	0.08397302
9	0xbe0283f0	-0.12745643
10	0xbe0a0e7a	-0.13482085
11	0x3bdabfc6	0.006675693
12	0x3e13d937	0.1443833
13	0x3c73e641	0.01488644
14	0xbc5c5349	-0.013447591
15	0xbb26653d	-0.0025389933
16	0xbe144a62	-0.144815
17	0xbcd9d28b	-0.026589653
18	0xbe1c5828	-0.15268004
19	0xbe10fb72	-0.14158419
20	0xbcd9dd7e	-0.026594874
21	0xbd838fd1	-0.06423915
22	0xbd84a134	-0.064760596
23	0x3d4d966b	0.050192278
24	0x3d584b6e	0.05280631
25	0x3c72e7c3	0.014825764
26	0xbd8c5ba7	-0.06853419
27	0xbba0bbc3	-0.0049051954
28	0x3e2f16dd	0.17098565
29	0x3db33f99	0.08752365
30	0x3d4405ef	0.04785722
31	0x3dcf7cd6	0.101312324
32	0xbdfbdfbc	-0.12298533
33	0x3dc50e96	0.09621923
34	0xbd3b4d95	-0.045728285
35	0x3e20e203	0.15711217
36	0x3d058119	0.03259382
37	0xbe079f1a	-0.13244286
38	0x3e00d842	0.12582496
39	0x3d45538c	0.04817538
40	0x3de0d4ec	0.109781116
41	0x3e0d165d	0.13778062
42	0x3d455883	0.048180114
43	0x3e2030b0	0.15643573
44	0xbc14a621	-0.009072811
45	0x3db9e5da	0.09077044
46	0x3e0b92e2	0.1363025
47	0xbba5456f	-0.0050436775
48	0xbdeed293	-0.116612576
49	0x3e032947	0.12808715
50	0x3d8796ab	0.066205345
51	0x3e14e503	0.14540486
52	0x3e2d7037	0.16937338
53	0xbe029e1d	-0.12755628
54	0x3ce75dd6	0.028242987
55	0x3d23856d	0.039922167
56	0xbda0b61a	-0.07847233
57	0x3e1291a6	0.14313373
58	0x3d3eb44f	0.046558674
59	0x3a1db6fb	0.0006016341
60	0xbddfcfec	-0.1092833
61	0x3d660ffd	0.05616759
62	0xbe01dfda	-0.12683049
63	0x3e29599d	0.16538091
64	0x3c6d472e	0.014482303
65	0x3dda31da	0.1065404
66	0xbd85412c	-0.06506571
67	0x3e2a1d4b	0.16612737
68	0x3cb5b27d	0.022179836
69	0x3e289aaf	0.16465257
70	0xbdf097bb	-0.1174769
71	0xbd54386a	-0.051811613
72	0xbe21621c	-0.15760082
73	0x3dbf4ca0	0.09340787
74	0xbe20aa69	-0.15690006
75	0x3de3b62e	0.111187324
76	0xbd419664	-0.047262564
77	0xbd1d9977	-0.038476434
78	0x3c57a40a	0.013161669
79	0x3d94f4eb	0.07273277
80	0x3df0f157	0.11764782
81	0xbc5f9cde	-0.01364824
82	0xbe2e43a2	-0.17017987
83	0xbc555a33	-0.013021993
84	0xbe17ac17	-0.14811741
85	0xbdede06a	-0.11615069
86	0x3de28425	0.11060361
87	0xbc71001d	-0.0147095
88	0xbdede610	-0.116161466
89	0xbe09494c	-0.13406867
90	0x3d984d24	0.074365884
91	0x3d2f3972	0.042779393
92	0x3e132034	0.14367753
93	0x3c9d4022	0.01919562
94	0x3e060aa0	0.1308999
95	0xbe2c20c8	-0.1680938
96	0x3cfd3d35	0.030912975
97	0xbcda8409	-0.026674287
98	0xbd9a248f	-0.07526504
99	0x3e020482	0.12697032
100	0xbbce9ac3	-0.00630507
101	0x3c9269fd	0.017872805
102	0xbd09d79b	-0.033652883
103	0x3e1585a1	0.14601757
104	0x3e1486c3	0.14504533
105	0x3d14132e	0.036151104
106	0x3cbb8557	0.02289073
107	0x3d9bcd6c	0.076075405
108	0x3d8f8d68	0.07009393
109	0x3d81d0e5	0.063386716
110	0xbd4d37e3	-0.050102126
111	0xbda6bb5a	-0.08141203
112	0xbd1fcdc4	-0.039014593
113	0x3d63211e	0.055451505
114	0x3cc11d89	0.023573654
115	0x3e01effd	0.12689205
116	0x3c41341f	0.011792212
117	0xbdd03082	-0.10165502
118	0xbd4cda7a	-0.050013043
119	0xbe1c2297	-0.1524757
120	0xbcc6a073	-0.02424643
121	0x3dd013fa	0.1016006
122	0xbc374882	-0.011186721
123	0xbdfc6f00	-0.12325859
124	0x3d38e968	0.04514447
125	0x3ca7e8d3	0.020496761
126	0x3db1d723	0.08683612
127	0x3d899b83	0.06719115
128	0xbe264f46	-0.16241178
129	0x3cd2c6ea	0.025729615
130	0xbe29f753	-0.16598253
131	0xbdbb2085	-0.09137062
132	0xbc9e1526	-0.019297194
133	0xbdfa2639	-0.12214322
134	0xbcbe7208	-0.023247734
135	0x3d9ad99b	0.07561036
136	0xbca77198	-0.020439908
137	0x3d677d87	0.056516197
138	0x3c8bcb6f	0.017064778
139	0xbafcb153	-0.0019278921
140	0x3e165f76	0.14684853
141	0x3df384b6	0.11890547
142	0xbd3186a6	-0.0433413
143	0x3e16cdb8	0.14726913

block1.conv3.bias f4 [4]
0	0x3c923a2d	0.017850006
1	0xbda508c4	-0.080583125
2	0xbdc7304d	-0.097260095
3	0xbccafa83	-0.024777656

block1.bn2.weight f4 [4]
0	0x3f813c06	1.0096443
1	0x3f834cc9	1.0257808
2	0x3f7dd35c	0.99150634
3	0x3f8176cf	1.0114383

block1.bn2.bias f4 [4]
0	0x3c8afa23	0.016964978
1	0xbc93f441	-0.018060805
2	0x3c386c32	0.0112562645
3	0x3ba74014	0.0051040743

block1.bn2.running_mean f4 [4]
0	0xbe4bb06d	-0.1989152
1	0xbe819877	-0.25311634
2	0xbeb4c368	-0.35305333
3	0xbe945cdd	-0.289771

block1.bn2.running_var f4 [4]
0	0x3f06c336	0.5264162
1	0x3e80b1cb	0.25135645
2	0x3ee8ecd0	0.45493174
3	0x3e4eabea	0.20182768

block1.downsample.0.weight f4 [4, 2, 3, 3]
0	0x3c82d6da	0.01597159
1	0xbe4426a6	-0.19155368
2	0xbcbffc8c	-0.023435853
3	0xbe1193ac	-0.14216489
4	0xbdb568bd	-0.08857868
5	0xbd737bb4	-0.059444144
6	0x3d3c2ee8	0.04594317
7	0xbe1df5c3	-0.15425782
8	0xbe45be07	-0.19310771
9	0xbd095f42	-0.03353811
10	0x3df05eae	0.11736809
11	0x3dae5b73	0.08513536
12	0x3e4f154c	0.20222968
13	0x3e062471	0.13099839
14	0x3e48677b	0.19570725
15	0xbda67dab	-0.08129438
16	0x3e67b141	0.22626211
17	0x3d6cab1c	0.05778037
18	0x3d9c164a	0.07621439
19	0xbe36f014	-0.1786502
20	0x3e4d9a03	0.20078282
21	0x3d7c86b8	0.061651915
22	0x3dbcada0	0.09212804
23	0x3dd50505	0.10401348
24	0xbe1d9332	-0.15388182
25	0x3db7433d	0.089483716
26	0xbe061691	-0.13094546
27	0xbc42cd15	-0.011889716
28	0xbd2adb5b	-0.0417131
29	0x3e29d414	0.16584808
30	0x3c43a2a2	0.01194063
31	0xbe1d7c00	-0.15379333
32	0x3e75a4b7	0.23988615
33	0xbce9ae21	-0.028525414
34	0x3e26b635	0.16280444
35	0x3d968845	0.0735021
36	0xbe19d2f1	-0.15021874
37	0xbd848e16	-0.06472413
38	0x3b300f50	0.0026864596
39	0x3e424b0a	0.18973938
40	0x3dbaff00	0.09130669
41	0x3c9032cd	0.017602349
42	0x3db16b23	0.08663013
43	0x3e4436ad	0.19161482
44	0x3da32125	0.07965306
45	0x3e621c79	0.22081174
46	0x3e0173cb	0.12641828
47	0x3e4400ea	0.19140974
48	0x3e2b235e	0.1671271
49	0x3de42046	0.11138968
50	0x3c3651d1	0.011127905
51	0x3e7fbf44	0.24975306
52	0xbdac08e8	-0.08400136
53	0xbe0f5b94	-0.13999778
54	0xbe2f5e8f	-0.17125915
55	0x3e1f8413	0.15577726
56	0xbe0479c3	-0.12937073
57	0xbc173fb4	-0.009231497
58	0xbe57e16b	-0.21082084
59	0xbdfbc625	-0.122936524
60	0xbdc252da	-0.09488459
61	0x3e6e08e9	0.23245586
62	0x3d247f2a	0.040160336
63	0x3d996496	0.07489888
64	0xbd4deba1	-0.05027354
65	0xbd905fec	-0.07049546
66	0x3e5b71d0	0.21430135
67	0x3ded0e58	0.115750015
68	0xbc950be7	-0.018194152
69	0xbdd02a12	-0.10164274
70	0x3e84f7d6	0.25970334
71	0x3d86148e	0.06546889

block1.downsample.0.bias f4 [4]
0	0x3d60676b	0.054786127
1	0x3e45448e	0.19264433
2	0xbc5fe5f4	-0.013665665
3	0xbe216c5f	-0.15763997

block1.downsample.1.weight f4 [4]
0	0x3f7d603e	0.9897498
1	0x3f7a85da	0.9786049
2	0x3f80d648	1.0065393
3	0x3f808f16	1.0043666

block1.downsample.1.bias f4 [4]
0	0x3c8afa23	0.016964978
1	0xbc93f441	-0.018060805
2	0x3c386c32	0.0112562645
3	0x3ba74014	0.0051040743

block1.downsample.1.running_mean f4 [4]
0	0xbe7b6299	-0.24549331
1	0xbc87e317	-0.016587777
2	0xbee87b63	-0.45406637
3	0xbeaa2d03	-0.33237466

block1.downsample.1.running_var f4 [4]
0	0x3da17fc6	0.07885699
1	0x3c8b8c66	0.01703472
2	0x3d724cd8	0.059155315
3	0x3ce2459c	0.027621083

block2.conv1.weight f4 [8, 4, 3, 3]
0	0x3c8f34d4	0.017481245
1	0xbc7b76fb	-0.015348191
2	0x3b2f2421	0.0026724415
3	0xbae5797b	-0.0017507517
4	0xbc922aa0	-0.01784259
5	0x3dda65af	0.10663926
6	0x3dd8966b	0.10575565
7	0xbd8dc129	-0.06921608
8	0x3e1083fe	0.14112851
9	0xbd0ff400	-0.035144806
10	0x3e0a0b59	0.13480891
11	0x3b7524a6	0.0037405877
12	0xbe1104e8	-0.14162028
13	0x3d18ba86	0.037287258
14	0xbe0ec218	-0.13941228
15	0xbdffe400	-0.124946594
16	0xbe18a971	-0.14908387
17	0x3d98eb95	0.07466809
18	0x3de955ea	0.1139334
19	0x3d4b1854	0.049583748
20	0x3e22686f	0.15860151
21	0xbdb29b8f	-0.08721077
22	0x3d5a0767	0.053229716
23	0x3dad7379	0.0846929
24	0x3dfb38d0	0.122666955
25	0x3d1ab5eb	0.037771147
26	0xbd311221	-0.04323018
27	0x3de0bc7d	0.10973451
28	0x3dfe8c1a	0.12429066
29	0xbe0e1f22	-0.13879064
30	0x3e02d250	0.1277554
31	0xbe163d1b	-0.14671747
32	0x3d8829bd	0.06648586
33	0x3b256a22	0.0025240262
34	0x3d9902f6	0.07471268
35	0xbe0ac09d	-0.13550039
36	0xbd1a5313	-0.037676882
37	0xbe2a4f65	-0.16631849
38	0x3d4ce9d1	0.050027672
39	0x3d18772b	0.037223022
40	0xbe1ebdbe	-0.15502068
41	0xbd904549	-0.07044465
42	0xbdd63071	-0.10458458
43	0xbd7ab3bd	-0.061206568
44	0x3ddca561	0.10773731
45	0xbdd3f403	-0.10349276
46	0x3d951324	0.072790414
47	0x3e0c3242	0.13691047
48	0xbd41a2ab	-0.047274273
49	0xbe23898c	-0.15970439
50	0x3dc9255c	0.09821579
51	0xbc500474	-0.012696374
52	0x3d4f5678	0.050619572
53	0xbe134828	-0.14382994
54	0xbc0a482b	-0.008440058
55	0x3e17028a	0.14747062
56	0x3df26169	0.11834986
57	0xbcbcd100	-0.023048878
58	0xbe371b19	-0.1788143
59	0xbe1f6cd6	-0.15568861
60	0xbe0f7a20	-0.1401143
61	0x3decfb88	0.11571413
62	0xbd1eae9b	-0.038740736
63	0xbe0f57f9	-0.13998403
64	0x3cb19380	0.021676779
65	0xbd8a14c3	-0.06742241
66	0xbe103215	-0.14081605
67	0xbd84d104	-0.06485179
68	0xbddd1768	-0.1079548
69	0x3c123879	0.008924597
70	0x3de9498b	0.1139098
71	0xbda861e6	-0.08221798
72	0x3e09f73c	0.13473219
73	0x3e13b508	0.14424527
74	0x3d57d47b	0.05269287
75	0xbdf46b9c	-0.11934587
76	0xbd6d4395	-0.05792578
77	0xbd94f4e0	-0.07273269
78	0xbe1c472e	-0.15261528
79	0x3da66a4c	0.08125743
80	0x3e28b9c1	0.1647711
81	0x3d66f9bd	0.056390513
82	0xbd80b0fc	-0.06283757
83	0xbdfe829a	-0.12427254
84	0xbe1d5745	-0.15365322
85	0x3ba2a2b0	0.0049632415
86	0x3c5ead38	0.013591103
87	0x3e04de83	0.12975506
88	0x3d79b587	0.060964134
89	0xbd26b1ea	-0.040697016
90	0x3cbc1dbc	0.022963397
91	0xbde90c90	-0.11379349
92	0x3dd04f65	0.10171393
93	0x3e11c3f0	0.142349
94	0x3e26dd77	0.1629542
95	0xbe0dcd65	-0.13847883
96	0xbdebffb9	-0.115233846
97	0x3dc6dbb2	0.09709872
98	0x3e37f688	0.17965138
99	0x3e1652b4	0.14679986
100	0x3cc24684	0.023715265
101	0x3dae77c4	0.08518937
102	0x3de2277b	0.110426866
103	0xbe064ed1	-0.13116004
104	0xbddee07d	-0.108826615
105	0x3cc0220c	0.023453735
106	0x3c998e02	0.018744472
107	0xbc0b1a73	-0.008490193
108	0xbdf876ef	-0.1213206
109	0xbdca4d26	-0.09877996
110	0xbdff34c0	-0.12461233
111	0xbdd1db7f	-0.10246944
112	0x3d034221	0.032045487
113	0xbded0695	-0.11573521
114	0x3d4374c2	0.04771877
115	0x3d890f35	0.06692354
116	0xbca3ad92	-0.019980226
117	0x3ca73d4f	0.020414976
118	0xbdf957d6	-0.121749565
119	0x3d18f9cc	0.0373476
120	0x3dba1f8a	0.09088047
121	0xbd489e19	-0.0489789
122	0xbdd6eecd	-0.104947664
123	0x3b740a1d	0.0037237473
124	0x3e0b2a76	0.13590416
125	0xbd66d6db	-0.056357246
126	0xbe1ce611	-0.15322138
127	0x3de3483b	0.11097761
128	0xbbc99cdd	-0.0061527328
129	0xbc963576	-0.018336039
130	0x3dab8855	0.08375613
131	0xbbc22a3a	-0.005925444
132	0xbe1978fb	-0.14987557
133	0xbd498def	-0.049207624
134	0x3d247409	0.040149722
135	0xbc5ec906	-0.013597732
136	0x3ddb56e3	0.10709932
137	0x3e059b0e	0.1304743
138	0x3da231b9	0.0791964
139	0x3e017233	0.1264122
140	0x3dce8f2b	0.10085901
141	0xbe068780	-0.13137627
142	0xbd26a78f	-0.04068714
143	0x3d5f8a91	0.054575507
144	0x3d12f4ce	0.035877995
145	0xbdc58dfd	-0.09646223
146	0xbde6ba41	-0.11265994
147	0x3db31849	0.087448664
148	0xbe177cee	-0.1479375
149	0xbd896c90	-0.0671016
150	0xbc0508dc	-0.008119788
151	0xbcd0fe80	-0.02551198
152	0x3e158c02	0.1460419
153	0xbe159954	-0.14609271
154	0xbd8552c6	-0.065099284
155	0x3d8f9ca6	0.070123
156	0xbcc8d9a9	-0.024517851
157	0x3e23c904	0.1599465
158	0x3cdbb470	0.026819438
159	0x3c334b65	0.010943268
160	0xbd3ca65d	-0.046057094
161	0x3d4520d0	0.048126996
162	0xbe0f74e5	-0.14009435
163	0x3ddce21c	0.107853144
164	0x3d8549f9	0.0650825
165	0xba40c8c3	-0.00073541346
166	0x3e0db8f6	0.13840088
167	0xbd311ddb	-0.043241363
168	0xbd071aad	-0.032984424
169	0xbb6d992e	-0.0036254632
170	0xbd368b83	-0.044566642
171	0x3e23dbe0	0.16001844
172	0xbd963459	-0.07334203
173	0x3df97319	0.12180156
174	0x3d0bfb45	0.034175176
175	0x3e058324	0.13038307
176	0x3e0482c1	0.12940504
177	0xbd28ef36	-0.041243754
178	0x3d3a1305	0.045428295
179	0xbe306a3e	-0.17228028
180	0x3d47abfc	0.048748
181	0x3da9de81	0.082943924
182	0xbdc45a75	-0.09587566
183	0xbe07dc7f	-0.13267706
184	0x3d9266ab	0.071484886
185	0x3c9ac9e3	0.018895095
186	0x3d2b29f7	0.041788068
187	0x3d978136	0.07397692
188	0xbdc3e259	-0.09564657
189	0x3dd2a4d4	0.10285345
190	0x3d4da03a	0.050201632
191	0x3e1f0fec	0.15533417
192	0xbd8fc080	-0.07019138
193	0x3e0696b0	0.1314342
194	0xbdf991f3	-0.12186041
195	0x3e1af95b	0.15134184
196	0xbda89ccd	-0.082330324
197	0xbcf70d7f	-0.030157803
198	0x3e0072b7	0.1254376
199	0xbce1ada7	-0.027548624
200	0x39f3371b	0.0004638963
201	0xbe2fb531	-0.17158963
202	0xbe2ba25b	-0.16761152
203	0xbe20650e	-0.1566355
204	0x3d166ed4	0.036726788
205	0xbc09a16d	-0.008400303
206	0x3e1e4c73	0.1545885
207	0x3d31c1ed	0.043397833
208	0x3e0f52a5	0.1399637
209	0x3da7aa05	0.081867255
210	0xbbf577e8	-0.0074911006
211	0xbe2ad670	-0.16683364
212	0xbe1ed25a	-0.1550993
213	0xbd96883b	-0.07350203
214	0xbcc38174	-0.023865439
215	0xbddd9563	-0.10819509
216	0x3cf68df4	0.030096985
217	0x3e2ad371	0.16682221
218	0x3da716ac	0.08158621
219	0xbdfd7f09	-0.12377746
220	0xbd198ace	-0.03748589
221	0x3d163d7c	0.03667973
222	0x3e241d04	0.16026694
223	0x3d4feeb0	0.05076474
224	0x3cfaf256	0.030633133
225	0xbdaa9c50	-0.083305955
226	0xbe19129f	-0.1494851
227	0x3db616bc	0.08891055
228	0x3dfe94ca	0.12430723
229	0xbe1c3975	-0.15256293
230	0x3bda5011	0.0066623767
231	0xbe0eff35	-0.13964541
232	0xbd704f1d	-0.0586692
233	0xbdb08b27	-0.08620291
234	0x3c5e9ead	0.013587636
235	0xbdf2420d	-0.118290044
236	0x3d98fcb3	0.074700736
237	0x3df620d6	0.12017982
238	0x3d90cb6d	0.070700504
239	0x3ddb0353	0.106939934
240	0xbdeb274b	-0.11482104
241	0x3e0fe781	0.14053155
242	0x3cae9978	0.021313414
243	0xbe170c50	-0.1475079
244	0x3cd60045	0.026123175
245	0x3cdbcaa1	0.02683002
246	0x3d50ca9b	0.05097447
247	0xbb8b74ee	-0.0042558825
248	0xbdd72e8c	-0.10506925
249	0xbe204cd1	-0.15654303
250	0x3d608631	0.054815475
251	0x3d606909	0.05478767
252	0x3d9d2598	0.07673186
253	0xbe3215c4	-0.17391115
254	0xbde83d9b	-0.11339875
255	0xbde9ee29	-0.114223786

block2.conv1.bias f4 [8]
0	0xbde75203	-0.11294939
1	0x3d123fb0	0.03570527
2	0x3c6ed3ca	0.014576862
3	0xbc415065	-0.011798953
4	0x3de06e3e	0.10958527
5	0xbbf8fe4d	-0.0075986744
6	0x3e089ec1	0.1334181
7	0x3dd2701c	0.102752894

block2.bn1.weight f4 [8]
0	0x3f80e00f	1.0068377
1	0x3f81b0e0	1.0132103
2	0x3f7fe46f	0.99957937
3	0x3f7d8e54	0.990453
4	0x3f81e4ce	1.0147951
5	0x3f7d0ca1	0.98847395
6	0x3f7e5d6f	0.9936132
7	0x3f7c9605	0.9866641

block2.bn1.bias f4 [8]
0	0x3aeeacf1	0.00182095
1	0xbc5d09a7	-0.013491071
2	0x3b18a2be	0.0023290361
3	0xbb8025c6	-0.003910753
4	0x3cd58d19	0.026068257
5	0x3bffdebd	0.007808535
6	0xbc261227	-0.010136164
7	0xbcaf26ba	-0.021380771

block2.bn1.running_mean f4 [8]
0	0xbd24ed2b	-0.040265244
1	0xbcc4af51	-0.024009379
2	0xbdffa9bc	-0.12483546
3	0x3d5e1021	0.0542146
4	0x3e82bb48	0.2553351
5	0xbee656ec	-0.4498819
6	0x3efe7004	0.49694836
7	0x3db51440	0.08841753

block2.bn1.running_var f4 [8]
0	0x3f2954d4	0.6614506
1	0x3fe56ff1	1.7924787
2	0x3f14c385	0.5811084
3	0x3e8431e5	0.25819317
4	0x3e927022	0.28601176
5	0x3f4ab771	0.7918616
6	0x3f24675d	0.6422022
7	0x3f09a81c	0.5377214

block2.conv2.weight f4 [8, 8, 3, 3]
0	0xbd56514b	-0.05232362
1	0x3da14e95	0.078763165
2	0x3daa7e8c	0.08324918
3	0x3d1e2b51	0.03861553
4	0xbc164a65	-0.0091730105
5	0x3d6de21a	0.058076955
6	0x3dffed45	0.124964274
7	0x3deb2e1e	0.114834055
8	0x3df8e22d	0.121525146
9	0xbc5c3d41	-0.013442338
10	0x3d63d504	0.05562307
11	0x3d2438b4	0.04009314
12	0xbde1e917	-0.110307865
13	0xb8bbec23	-8.960839e-05
14	0x3db61917	0.08891504
15	0x3d1356b8	0.035971373
16	0xbcfaa0f6	-0.03059433
17	0xbd4f93f4	-0.05067821
18	0xbd8474e0	-0.06467605
19	0x3d92179f	0.071334116
20	0xbdce36e0	-0.1006906
21	0xbdcdeb90	-0.100546956
22	0xbcbac9bf	-0.022801278
23	0x3d5cb558	0.05388388
24	0xbdbc3cdf	-0.09191298
25	0xbdbf08ae	-0.093278274
26	0x3def0c53	0.116722725
27	0x3ce5c2bd	0.02804696
28	0xbd044bbf	-0.0322988
29	0x3d834ccc	0.06411132
30	0xbc2edca7	-0.010672725
31	0x3ddcfd1c	0.10790464
32	0x3dc1bdb1	0.09460009
33	0x3cb942e4	0.022614904
34	0xbd27c833	-0.04096241
35	0xbd600adf	-0.054697867
36	0xbde8aca5	-0.11361054
37	0xbde94f59	-0.113920875
38	0x3dbdefa7	0.09274226
39	0x3c313ad8	0.010817252
40	0xbd2341bb	-0.039857607
41	0x3dea28ba	0.11433549
42	0x3dd9ee77	0.10641187
43	0xbd3fe4f2	-0.0468492
44	0xbdaf346a	-0.08554919
45	0xbc3e4a30	-0.011614367
46	0x3df24474	0.11829463
47	0x3db2b5ff	0.08726119
48	0x3d93b193	0.07211604
49	0xbd6389fd	-0.055551518
50	0xbd00989a	-0.031395532
51	0xbbeed85c	-0.0072889756
52	0x3d4aaadc	0.04947935
53	0xbd9adf26	-0.075620934
54	0x3d13346e	0.035938673
55	0xbd9eaf4f	-0.07748281
56	0xbd7a0c78	-0.061047047
57	0x3cef7505	0.029230604
58	0xbd9511cd	-0.07278786
59	0x3db5b18c	0.08871755
60	0xbddfde37	-0.10931056
61	0x3daab2e0	0.08334899
62	0xbd920f55	-0.071318306
63	0xbda3ccb7	-0.07998031
64	0x3db2245d	0.08698342
65	0x3d839d69	0.06426508
66	0xbcf0e66b	-0.029406747
67	0x3df07f46	0.117430255
68	0x3d6bc28f	0.057558592
69	0xbdcef5a1	-0.10105444
70	0x3cb13ca6	0.021635365
71	0xbd04119a	-0.03224335
72	0x3cd3d2f7	0.025857432
73	0xbd6b303d	-0.05741905
74	0xbd55e973	-0.052224588
75	0xbda640b1	-0.08117808
76	0xbdbb92c8	-0.09158856
77	0x3d96461e	0.073375925
78	0x3dcbd0fd	0.09951971
79	0x3c29e764	0.010370109
80	0xbcdef922	-0.027218405
81	0x3db4e5c3	0.08832886
82	0xbdff2bf2	-0.12459554
83	0xbdec52b8	-0.11539215
84	0x3dc97456	0.098366424
85	0xbdaf3411	-0.08554853
86	0xbdb5fe2d	-0.08886371
87	0xbd995828	-0.074875176
88	0x3d9213bd	0.07132671
89	0x3de3f3c2	0.111304775
90	0xbd13f500	-0.036122322
91	0x3db86839	0.09004254
92	0xbdba6e8c	-0.091031164
93	0x3dcbfae0	0.0995996
94	0xbc65d11e	-0.014026908
95	0xbd8aad96	-0.0677139
96	0xbd3df358	-0.04637465
97	0xbd83cf0c	-0.064359754
98	0xbdee4528	-0.11634284
99	0x3d53e324	0.05173029
100	0xbdc6ac05	-0.09700779
101	0x3cd8a079	0.026443707
102	0x3d11d6c3	0.035605203
103	0x39d72811	0.00041037847
104	0x3c65c0dc	0.014023032
105	0xbdcdd596	-0.10050504
106	0x3c3c4d4b	0.011493037
107	0x3d81fc32	0.063469306
108	0xbc8330bd	-0.016014451
109	0x3d9091bc	0.070590466
110	0x3dd71e6c	0.105038494
111	0xbd8f154b	-0.06986483
112	0xbdc7fa0b	-0.09764489
113	0xbde4c139	-0.11169667
114	0xbdc22627	-0.09479933
115	0x3daba32f	0.08380734
116	0xbc20a5f1	-0.0098051885
117	0xbdb2f13a	-0.087374166
118	0xbd483983	-0.048882972
119	0xbd79c248	-0.060976297
120	0x3d531fb2	0.0515439
121	0xbd9ddbb0	-0.07707918
122	0x3daab23d	0.083347775
123	0xbdcb7d3a	-0.099359944
124	0xbd36ad55	-0.044598896
125	0xbc52ca13	-0.012865561
126	0x3ce66c93	0.028127944
127	0x3c8d7088	0.017265573
128	0x3d72b8cc	0.059258267
129	0x3db37b28	0.087637246
130	0x3da75b6f	0.081717364
131	0x3cc7597a	0.024334658
132	0xbcb0500a	-0.02152254
133	0x3cf36c0c	0.029714607
134	0xbdeb3024	-0.114837915
135	0xbd5a19d1	-0.053247277
136	0x3dcfa90a	0.101396635
137	0x3db18281	0.0866747
138	0x3d56130a	0.05226425
139	0xbbc9abed	-0.0061545284
140	0x3daba325	0.08380727
141	0x3c9303bc	0.017946117
142	0xbd65d9cd	-0.056115914
143	0xbbfecc5c	-0.0077758264
144	0xbd837c25	-0.06420163
145	0x3dc57603	0.096416496
146	0xbd179b09	-0.037013087
147	0x3d686576	0.056737386
148	0x3d8fe052	0.070252076
149	0x3dda41df	0.10657095
150	0x3df3dbb0	0.119071364
151	0x3ccd9ae4	0.025098272
152	0x3de13bc1	0.10997725
153	0xbd9a362b	-0.07529863
154	0x3da75348	0.081701815
155	0xbdb9e8ed	-0.0907763
156	0xbc60b155	-0.013714154
157	0x3d73484f	0.05939513
158	0xbcb8cf75	-0.02255986
159	0xbda1e9eb	-0.079059444
160	0x3d21fe60	0.03954923
161	0x3d1d4cbd	0.03840326
162	0x3de8eb64	0.11373022
163	0x3c59c0c1	0.013290585
164	0xbcc6cf67	-0.024268819
165	0xbde42cbf	-0.11141347
166	0x3d78afb9	0.060714457
167	0xbdb67df2	-0.08910741
168	0xbdcd3e7d	-0.10021684
169	0xbc6c0306	-0.014405018
170	0xbc8eb7f3	-0.017421698
171	0x3d1dec40	0.038555384
172	0xbc989f5a	-0.018630672
173	0xbd9ebf70	-0.077513576
174	0xbd95fdeb	-0.07323822
175	0x3ce4971d	0.027904088
176	0xbb61e21f	-0.0034467054
177	0xbc08c31e	-0.008347301
178	0x3d0da1a3	0.034577977
179	0xbcfef113	-0.031120813
180	0xbd36a2be	-0.044588797
181	0x3dad1dba	0.084529355
182	0xbde78ee4	-0.11306551
183	0x3d44bfce	0.04803448
184	0xbd36d9a2	-0.044641145
185	0x3d6cc2d1	0.05780298
186	0xbddf86ae	-0.1091436
187	0xbddf884c	-0.109146684
188	0x3d854329	0.065069504
189	0xbde55c01	-0.11199189
190	0xbd4e32ea	-0.050341524
191	0xbd397672	-0.045278974
192	0x3d709a94	0.058741167
193	0xbdcc57ce	-0.09977685
194	0x3d400ee2	0.046889193
195	0xbd8d87c3	-0.0691066
196	0x3d6f5ae4	0.05843629
197	0xbdb6af1a	-0.08920117
198	0x3d165101	0.036698345
199	0x3dbe213a	0.09283681
200	0x3e11574f	0.14193462
201	0x3d9c238b	0.07623967
202	0xbd339b71	-0.043849412
203	0xbdb81bdf	-0.08989691
204	0xbddc2f1f	-0.10751175
205	0x3dbca4dc	0.09211132
206	0xbd54cfc7	-0.051955964
207	0x3d99fc61	0.075188406
208	0x3da002a0	0.07813001
209	0x3cb3dd34	0.021956064
210	0xbd1624f4	-0.036656335
211	0x3dbb4d28	0.09145576
212	0xbd96ed65	-0.07369498
213	0x3d8f5f5a	0.07000609
214	0x3c4bfe48	0.012450762
215	0xbd6b286b	-0.057411592
216	0xbc7661da	-0.015037978
217	0x3dbdc0aa	0.092652634
218	0x3ddc8253	0.10767045
219	0x3dc6ea75	0.09712688
220	0x3d9f4919	0.07777614
221	0x3dbda567	0.092600636
222	0x3daa2bbb	0.08309122
223	0xbd4f0667	-0.050543215
224	0x3da9757c	0.082743615
225	0x3ca71e17	0.02040009
226	0x3db12728	0.086500466
227	0x3ce83202	0.028344158
228	0x3c48e0e1	0.012260647
229	0x3dadfdd4	0.084956795
230	0x3d771ab3	0.060328197
231	0x3ddaf9b9	0.10692162
232	0x3dc2cdd7	0.09511917
233	0xbd8eb933	-0.06968918
234	0xbd2f07a3	-0.042731892
235	0xbda1c3e5	-0.07898692
236	0xbd2a8600	-0.0416317
237	0x3ddff6ef	0.10935771
238	0x3d47fc47	0.048824575
239	0xbcb689eb	-0.022282561
240	0xbdff7512	-0.12473501
241	0x3c52b1cb	0.012859772
242	0xbac55bb7	-0.001505724
243	0x3de54990	0.111956716
244	0xbd249a2f	-0.040186103
245	0xbcddbef1	-0.027068587
246	0x3d735faf	0.059417423
247	0xbd7d05b3	-0.061773013
248	0xbdb86124	-0.09002903
249	0xbdc6528b	-0.096837126
250	0xbc101fe5	-0.008796667
251	0xbb33a902	-0.002741397
252	0x3d500f61	0.050795916
253	0x3d6e657d	0.058202256
254	0xbd53d2dd	-0.051714767
255	0xbdb80ea6	-0.08987169

block2.conv2.bias f4 [8]
0	0xbd488893	-0.048958372
1	0x3d25f90e	0.04052072
2	0x3d480748	0.04883507
3	0x3d9e3f29	0.077268906
4	0x3d95eb76	0.07320301
5	0xbdaa98a3	-0.083298944
6	0x3d4bd41c	0.04976283
7	0x3ce6ee2f	0.028189747

block2.conv3.weight f4 [8, 8, 3, 3]
0	0x3d30a52b	0.043126266
1	0x3dacd3ad	0.084388115
2	0x3d2a388f	0.041557845
3	0x3dbf0410	0.09326947
4	0xbc9f1436	-0.019418817
5	0x3d8dd81e	0.06925987
6	0x3d98091a	0.07423611
7	0x3de31094	0.110871464
8	0xbd02bdce	-0.031919293
9	0xbccbf424	-0.024896689
10	0xbd4a6952	-0.049416848
11	0x3ca5120b	0.020150205
12	0xbdd6368a	-0.10459621
13	0x3c2ed06f	0.010669812
14	0xbd8691d7	-0.065707855
15	0xbda2c5df	-0.07947897
16	0x3dada7e4	0.08479288
17	0xbd7dfbac	-0.06200759
18	0x3dd65b96	0.104666874
19	0xbdedfffd	-0.116210915
20	0xbdef7e0b	-0.11693963
21	0xbd90bbfe	-0.07067107
22	0x3d3f352f	0.04668158
23	0x3dc77cf3	0.09740629
24	0xbdcee8bd	-0.10102985
25	0xbda6e198	-0.08148497
26	0xbba3888f	-0.0049906443
27	0xbced406a	-0.02896138
28	0x3d9f1845	0.07768301
29	0x3d75132d	0.05983274
30	0x3ccd82bd	0.025086755
31	0xbc76b1aa	-0.015057007
32	0x3da97adb	0.08275386
33	0x3db1fae0	0.08690429
34	0xbc4143eb	-0.011795978
35	0x3d857b99	0.06517715
36	0xbd000f77	-0.03126475
37	0x3d86fde1	0.06591392
38	0xbc3812db	-0.011234964
39	0xbdc36605	-0.09540943
40	0xbd7f0512	-0.062260695
41	0xbd6dc267	-0.058046725
42	0x3dbf248e	0.09333144
43	0xbb8b67c1	-0.004254312
44	0xbdb1a23b	-0.08673521
45	0xbcb1eecb	-0.02172031
46	0xbc0da7d9	-0.008645975
47	0xbdccbec4	-0.09997323
48	0x3dea1366	0.11429481
49	0x3d5de1de	0.05417048
50	0x3c9e4ce3	0.019323772
51	0xbdce4655	-0.100720085
52	0x3d9c5bc7	0.07634693
53	0x3c91202e	0.01771554
54	0x3dcac728	0.09901267
55	0x3ddea035	0.10870401
56	0x3d2e6884	0.042580143
57	0xbc912f69	-0.017722802
58	0x3db46602	0.08808519
59	0xbdc51e04	-0.09624866
60	0xbb6ce253	-0.0036145642
61	0xbc2d58ca	-0.010580251
62	0x3d14599f	0.03621828
63	0x3da03f6f	0.07824599
64	0xbdba3c4f	-0.09093534
65	0xbd718dc0	-0.058973074
66	0x3d462cc5	0.04838254
67	0xbd19f2ea	-0.037585177
68	0x3dbaf405	0.09128574
69	0xbd695f44	-0.056975618
70	0x3daa13c7	0.083045535
71	0x3da603dd	0.081062056
72	0x3d45522b	0.048174065
73	0x3d1cf7c4	0.038322225
74	0x3d2f5564	0.042806044
75	0xbd04f45e	-0.03245961
76	0xbc99a9fc	-0.018757813
77	0x3db67134	0.089083105
78	0x3da26184	0.07928756
79	0xbdd9bb9c	-0.10631487
80	0x3dda4597	0.106578045
81	0xbd97a133	-0.07403793
82	0xbc678ba6	-0.014132416
83	0xbd45e18d	-0.048310805
84	0xbd993270	-0.07480323
85	0x3d87bbf8	0.06627649
86	0x3d231fe9	0.039825354
87	0xbddd2583	-0.107981704
88	0xbd86ee61	-0.06588436
89	0xbdc45738	-0.09586948
90	0xbd0366ed	-0.03208058
91	0x3dd24c28	0.10268432
92	0xbd511664	-0.051046744
93	0xbdbbb1e0	-0.09164786
94	0x3d2b1fcf	0.041778382
95	0xbd5984cc	-0.05310516
96	0x3da5702e	0.08078037
97	0x3d144c6c	0.036205694
98	0xbac9a427	-0.0015384004
99	0x3d8df269	0.06931002
100	0x3d1142af	0.035463985
101	0xbda5c014	-0.080932766
102	0x3dee3034	0.11630288
103	0x3d21376b	0.03935949
104	0x3c8a05a4	0.016848393
105	0x3d9b3b53	0.075796746
106	0xbd815950	-0.06315863
107	0xbd940a82	-0.07228567
108	0x3cea5eea	0.028609712
109	0x3d845fbf	0.064635746
110	0xbc87022e	-0.016480532
111	0x3c7d6386	0.015465623
112	0x3b92c50b	0.0044790558
113	0xbace4999	-0.0015738487
114	0xbd8063ef	-0.06269061
115	0xbc26f373	-0.010189879
116	0xbd2add75	-0.041715104
117	0x3d96c9d7	0.07362717
118	0xbcc4a092	-0.024002347
119	0xbd6db4b6	-0.058033668
120	0x3d29cc95	0.04145487
121	0x3d8d4ef9	0.068998285
122	0xbdc3c9d0	-0.09559977
123	0x3dd2ad81	0.102869995
124	0xbba931d3	-0.00516341
125	0x3daff57c	0.08591744
126	0x3c6c56b7	0.014424971
127	0xbcdcea4a	-0.026967186
128	0x3d9b5d3d	0.07586143
129	0x3cdb27da	0.026752401
130	0xbd758e39	-0.059950087
131	0x3ddfbbc4	0.10924485
132	0xbdd71897	-0.10502737
133	0x3d80952d	0.06278453
134	0x3d1a89ab	0.037728947
135	0xbce6fbd6	-0.028196257
136	0xbc60c2c9	-0.013718315
137	0xbd995248	-0.07486397
138	0x3d4ecdd8	0.050489277
139	0xbd8894a1	-0.06668974
140	0x3d94282c	0.07234225
141	0x3ddecab0	0.10878503
142	0x3dec3143	0.115328334
143	0x3dee39cf	0.1163212
144	0xbc49b6ac	-0.012311619
145	0x3b6932cb	0.0035583253
146	0x3dddb5f0	0.108257174
147	0xbd70d807	-0.05879977
148	0x3d3eadd1	0.046552483
149	0xbaae8b25	-0.0013316615
150	0x3d45a4ec	0.048252985
151	0xbb044e1d	-0.002018816
152	0x3cdbe168	0.02684088
153	0xbdf904ca	-0.121591166
154	0x3dbe5d80	0.092951775
155	0xbdcd91d7	-0.10037582
156	0x3d95efd4	0.07321134
157	0xbd81ea48	-0.06343514
158	0x3d09c79a	0.03363762
159	0x3cce6037	0.025192363
160	0x3d6908a7	0.056893017
161	0x3d620558	0.055180877
162	0xbda6b047	-0.08139091
163	0x3c6be18f	0.014397039
164	0xbd86e065	-0.065857686
165	0xbdd48fbd	-0.103789784
166	0x3dba50aa	0.09097417
167	0xbdc755be	-0.09733151
168	0xbd10b818	-0.035331815
169	0xbd1e490f	-0.038643893
170	0xbc3198a4	-0.010839615
171	0xbcaa7824	-0.02080924
172	0xbda099ec	-0.07841858
173	0xbc9eb1d2	-0.0193719
174	0x3d8724e3	0.065988325
175	0x3b2be900	0.0026231408
176	0xbdf9aeaf	-0.121915214
177	0x3db2083e	0.08692978
178	0xbdc7e49d	-0.097604014
179	0x3a171eeb	0.00057648
180	0x3d943be1	0.072379835
181	0xbd16a47c	-0.03677796
182	0x3d7c7217	0.061632242
183	0xbdcbefa6	-0.09957819
184	0xbd86430b	-0.06555756
185	0x3d9dd0d7	0.07705849
186	0x3d8d1fa7	0.06890803
187	0x3cd940a9	0.02652009
188	0xbd8c4c91	-0.068505414
189	0xbd91770e	-0.07102786
190	0xbdf5f2f2	-0.12009229
191	0xbd9a46b2	-0.07533015
192	0xbc0abf89	-0.008468517
193	0x3cbbda93	0.022931373
194	0x3dd9d74e	0.10636769
195	0x3d357a47	0.044306066
196	0x3d6f7848	0.05846432
197	0xbdc4394e	-0.095812425
198	0xba3012b7	-0.0006716656
199	0x3bce2539	0.0062910584
200	0xbd53ecd9	-0.051739547
201	0x394d6cfa	0.0001959092
202	0xbdc64ac0	-0.09682226
203	0xbd7629be	-0.060098402
204	0x3dae12d5	0.08499686
205	0xbbec2767	-0.0072068456
206	0xbd9b885b	-0.07594367
207	0x3dbae8cd	0.091264345
208	0x3d8ef06d	0.06979451
209	0x3bf32434	0.0074200872
210	0xbd66fd9b	-0.0563942
211	0xbd9f1138	-0.07766956
212	0x3d5d8f8d	0.05409198
213	0x3d0b3172	0.0339827
214	0x3dab5f13	0.08367743
215	0x3d5e0bef	0.0542106
216	0xbd36c109	-0.044617686
217	0x3c099a0d	0.008398545
218	0x3c0e927c	0.008701917
219	0xbd8d69f9	-0.06904978
220	0xbd6701c8	-0.056398183
221	0xbd14244d	-0.03616743
222	0x3d2e1eb0	0.042509735
223	0x3d8adf62	0.06780888
224	0xbdcf7918	-0.10130519
225	0x3d9589f9	0.07301707
226	0x3d9c4ab2	0.076314345
227	0xbda0e0cd	-0.07855377
228	0x3dee6130	0.11639631
229	0xbc9329da	-0.017964292
230	0xbcca157f	-0.024668453
231	0x3c1dafdd	0.009624449
232	0xbd37cf91	-0.044875685
233	0x3d96f38e	0.07370673
234	0xbdd2fbe8	-0.103019536
235	0x3ccd5c04	0.02506829
236	0xbc5ffe26	-0.013671434
237	0xbd93afbc	-0.07211253
238	0xbc8c8514	-0.0171533
239	0x3db47723	0.08811786
240	0x3ca72598	0.020403668
241	0xbdf63f44	-0.12023786
242	0xbdf3e55d	-0.11908982
243	0xbd69f8cc	-0.057122037
244	0xbdc396dc	-0.095502585
245	0x3d978fba	0.074004605
246	0xbd701400	-0.058612823
247	0x3da28884	0.079361945
248	0xbd235bdd	-0.03988253
249	0x3ddedb9c	0.10881731
250	0x3dbeda8d	0.09319029
251	0x3c61a81c	0.013772991
252	0x3dc32bb0	0.09529817
253	0x3de9fdb0	0.1142534
254	0xbda37ece	-0.079831704
255	0xbd2c7582	-0.04210425

block2.conv3.bias f4 [8]
0	0xbcea7b4b	-0.028623244
1	0xbbfee7da	-0.0077791037
2	0x3d73638f	0.05942112
3	0x3da1dc0e	0.079033
4	0xbd0c607b	-0.0342717
5	0x3d19402b	0.03741471
6	0xbd9a81b7	-0.075442724
7	0x3da267ee	0.07929979

block2.bn2.weight f4 [8]
0	0x3f7eab59	0.99480206
1	0x3f7cca75	0.98746425
2	0x3f82920c	1.020082
3	0x3f7c88c8	0.9864621
4	0x3f81877c	1.0119472
5	0x3f8137cc	1.0095153
6	0x3f847142	1.0347064
7	0x3f81d1d7	1.0142163

block2.bn2.bias f4 [8]
0	0xbc3e6f22	-0.011623176
1	0x3ba54462	0.0050435523
2	0x3be11eab	0.006870111
3	0xbcdbb75c	-0.026820831
4	0x3d237e50	0.039915383
5	0x3d5943cf	0.053043183
6	0xbc45c653	-0.01207121
7	0x3c5d1f38	0.013496213

block2.bn2.running_mean f4 [8]
0	0xbd1cf37f	-0.038318153
1	0xbcac9443	-0.02106679
2	0xbc549463	-0.012974831
3	0x3dcacfbb	0.09902903
4	0xbe3a18f0	-0.18173575
5	0x3d09f61c	0.033681974
6	0xbd82d82c	-0.06388888
7	0x3e307562	0.17232278

block2.bn2.running_var f4 [8]
0	0x3df4e520	0.119577646
1	0x3de25a36	0.110523626
2	0x3dfe2908	0.1241017
3	0x3dd25116	0.10269372
4	0x3e6058b7	0.21908842
5	0x3e93bd39	0.28855303
6	0x3e775746	0.24154386
7	0x3e6aed21	0.2294202

block2.downsample.0.weight f4 [8, 4, 3, 3]
0	0xbe0e329a	-0.1388649
1	0xbdd48fa8	-0.10378963
2	0x3dea4224	0.114383966
3	0x3e133ab3	0.1437786
4	0xbdb78542	-0.08960964
5	0xbda89e4a	-0.08233316
6	0xbe04ed6c	-0.12981194
7	0x3d8d5ef5	0.06902877
8	0x3dd9e6f3	0.10639753
9	0x3e1176ef	0.14205526
10	0x3de73d94	0.11291042
11	0xbe21737e	-0.15766713
12	0x3d905af8	0.07048601
13	0x3c0d28ba	0.008615667
14	0x3e25430e	0.1613886
15	0xbd1493c1	-0.03627372
16	0xbe0e0adc	-0.1387133
17	0xbb9d7ddf	-0.004806265
18	0xbe1b2558	-0.15150964
19	0x3dbfbe98	0.09362525
20	0xbdb8cc94	-0.09023395
21	0xbe286096	-0.16443095
22	0xbd9e0788	-0.0771628
23	0xbd5191ff	-0.051164623
24	0xbe241b2e	-0.16025993
25	0x3cd550ac	0.026039444
26	0x3d058cdd	0.03260504
27	0xbdf3869a	-0.118909076
28	0x3db14883	0.08656409
29	0x3d59d554	0.05318196
30	0x3ddaa39b	0.106757365
31	0x3dc74450	0.097298265
32	0x3daa8318	0.083257854
33	0x3cba7e11	0.022765191
34	0x3e1e4926	0.15457591
35	0xbce5f3fa	-0.028070439
36	0xbd9c21df	-0.07623648
37	0xbdc2b255	-0.095066704
38	0x3df27640	0.11838961
39	0x3d4c20de	0.049836032
40	0xbc59857b	-0.013276453
41	0xbcd7051e	-0.026247557
42	0x3df6656e	0.12031065
43	0xbdada0d5	-0.08477942
44	0x3c3bfd12	0.011473911
45	0x3e14c946	0.14529905
46	0xbd4391a4	-0.047746316
47	0x3e3a984b	0.18222158
48	0xbe18b277	-0.14911829
49	0xbc8382f3	-0.016053652
50	0x3d794491	0.060856406
51	0xbe2520b7	-0.16125761
52	0xbde6e403	-0.112739585
53	0x3d4d3cba	0.05010674
54	0xbe162f00	-0.14666367
55	0xbce1616a	-0.027512271
56	0xbe0bcae6	-0.13651618
57	0x3e22fa9e	0.15915915
58	0xbe0e26cb	-0.13881986
59	0x3e0f1bcf	0.13975452
60	0xbdb17911	-0.0866567
61	0x3d351ecf	0.044218834
62	0xbe0e3bcc	-0.13889998
63	0x3e11fea5	0.14257295
64	0x3dd0bb35	0.10191957
65	0x3e1b1ff7	0.15148912
66	0x3af2e8cd	0.0018532515
67	0xbe13d965	-0.14438398
68	0x3c9c4df2	0.019080136
69	0x3d8dd5d4	0.0692555
70	0x3c6472ef	0.013943418
71	0x3e22333c	0.15839857
72	0xbe11c24a	-0.14234272
73	0xbd838694	-0.06422153
74	0x3ccd6d39	0.025076495
75	0x3e1348c2	0.14383224
76	0xbddc442d	-0.10755191
77	0x3dbda80c	0.09260568
78	0xbdfd1f7c	-0.12359521
79	0xbe299d06	-0.16563806
80	0x3d734aea	0.059397615
81	0xbd832056	-0.06402652
82	0x3d2aac1b	0.04166804
83	0x3da8ca0f	0.082416646
84	0x3dafb468	0.08579332
85	0x3e07f64d	0.1327755
86	0xbd238511	-0.039921824
87	0xbcd55989	-0.02604367
88	0x3c1d409b	0.009597923
89	0xbe11b0cf	-0.14227603
90	0xbde60ac6	-0.112325236
91	0xbd5c67cc	-0.053809926
92	0x3e1478cb	0.14499204
93	0xbdd80304	-0.1054745
94	0xbe238a39	-0.15970697
95	0xbe2e4122	-0.17017034
96	0xbdbddb7a	-0.092703775
97	0x3e00d60a	0.1258165
98	0x3e1a0c5b	0.15043776
99	0x3dc5f971	0.09666718
100	0x3d52a345	0.051425237
101	0xbdc2d259	-0.09512777
102	0xbddafa24	-0.10692242
103	0x3d89f242	0.0673566
104	0x3db1d319	0.08682842
105	0xbdf2e138	-0.11859363
106	0xbd51d7ad	-0.051231075
107	0xbe28a284	-0.16468245
108	0xbbc121a2	-0.005893902
109	0x3c80bd82	0.015715364
110	0x3c139872	0.009008514
111	0x3de8ddee	0.11370455
112	0x3ccfa455	0.025346914
113	0xbd3c6e58	-0.04600367
114	0xbe18f29e	-0.14936301
115	0xbdcedf7b	-0.10101219
116	0x3d86259c	0.06550142
117	0xbd9068c9	-0.07051236
118	0x3df35e69	0.11883242
119	0x3d758f00	0.05995083
120	0x3e003364	0.12519604
121	0xbde7997d	-0.113085724
122	0x3d7c319a	0.06157074
123	0x3b3b42b1	0.0028573687
124	0x3dc6652d	0.096872665
125	0x3e08dc0b	0.1336519
126	0x3d9aba33	0.07555046
127	0x3de36b6f	0.11104476
128	0xbda4d1ac	-0.08047804
129	0xbb7aac6c	-0.0038249744
130	0x3ce5d68b	0.028056404
131	0x3dd20d29	0.10256416
132	0x3e02df12	0.12780407
133	0xbc0f48cf	-0.008745386
134	0x3ccc5909	0.024944799
135	0xbdb9931a	-0.090612605
136	0x3cf662c3	0.03007639
137	0xbe0011a2	-0.12506726
138	0xbd0a52fe	-0.033770554
139	0x3dec3923	0.115343355
140	0x3d9b63cf	0.07587396
141	0x3bbeaa3e	0.0058186343
142	0x3d58015b	0.052735668
143	0xbdd96d28	-0.10616523
144	0x3dd09c5d	0.10186074
145	0x3d178b69	0.036998186
146	0xbdef64b2	-0.11689128
147	0xbd9604b0	-0.07325113
148	0x3db24b4e	0.087057695
149	0xbdf77f83	-0.12084868
150	0x3d933aca	0.071889475
151	0xbe2d9ffd	-0.16955562
152	0x3cc5b459	0.024133848
153	0x3df5deda	0.12005396
154	0x3dd2b7e6	0.10288982
155	0x3e0507ee	0.12991306
156	0x3da110c6	0.078645274
157	0x3dcf37e0	0.10118079
158	0xbc748bf8	-0.014925949
159	0x3c953d57	0.018217726
160	0xbcf7056b	-0.03015395
161	0x3e04d01b	0.12970011
162	0xbc9a6c27	-0.0188504
163	0x3b888a84	0.004166903
164	0x3e020754	0.12698108
165	0xbac97126	-0.0015368804
166	0xbdea19ee	-0.11430727
167	0xbdf0e9de	-0.117633566
168	0x3dbdf437	0.09275096
169	0xbe218758	-0.15774286
170	0x3e105938	0.14096534
171	0x3dd4bdcd	0.10387764
172	0xbdb01362	-0.08597447
173	0xbb24e392	-0.0025160057
174	0xbe31967c	-0.17342561
175	0xbe22fabe	-0.15915963
176	0x3d83d6cc	0.06437454
177	0x3cb822c8	0.022477522
178	0xbcb9cb8f	-0.022680072
179	0xbdc7d0ae	-0.09756599
180	0xbd142651	-0.036169354
181	0x3d7b991d	0.061425317
182	0xbd599807	-0.0531235
183	0xbd11d1b2	-0.03560037
184	0x3c198519	0.009370112
185	0x3c79fa91	0.015257494
186	0x3da4b259	0.080418296
187	0x3e00a180	0.12561607
188	0x3e0b8172	0.13623598
189	0xbdf5a19d	-0.11993716
190	0xbd15fbf0	-0.03661722
191	0xbb9b3755	-0.0047368207
192	0x3d5e775c	0.05431305
193	0x3e24543d	0.1604776
194	0xbd95e989	-0.07319934
195	0x3dc37a68	0.095448315
196	0x3dbd113e	0.09231804
197	0xbd6afd62	-0.05737055
198	0xbd0dfa01	-0.03466225
199	0x3cc72209	0.024308221
200	0x3d1ca57b	0.038243752
201	0x3d85c065	0.06530837
202	0x3d9418a2	0.07231261
203	0x3d2f9691	0.0428682
204	0x3e11941e	0.14216658
205	0xbde7d867	-0.11320572
206	0x3da12600	0.07868576
207	0x3e090e58	0.13384378
208	0xbde65b29	-0.11247856
209	0x3d9ce7e0	0.07661414
210	0x3d3a69f4	0.0455112
211	0x3d541997	0.051782217
212	0x3db2b644	0.08726171
213	0x3b60505d	0.0034227588
214	0xbe15e2d6	-0.14637312
215	0xbdb6d30a	-0.08926971
216	0x3c79290e	0.015207542
217	0x3d594cad	0.05305164
218	0xbdffcc10	-0.12490094
219	0x3d0f6e20	0.035017133
220	0xbe16da50	-0.14731717
221	0x3d45745a	0.048206665
222	0xbe1e93f5	-0.15486129
223	0xbda20531	-0.079111464
224	0xbe1e384a	-0.1545116
225	0x3d4bb4e1	0.049733046
226	0xbe09b6af	-0.13448595
227	0x3cdf42d8	0.027253553
228	0xbcded368	-0.027200416
229	0x3d4b8963	0.04969157
230	0xbbf6110d	-0.007509357
231	0x3d8ef6bd	0.06980655
232	0xbd62f751	-0.05541164
233	0xbd817c78	-0.06322569
234	0xbd6a113f	-0.057145353
235	0x3cc6976a	0.024242122
236	0x3d434afc	0.047678933
237	0x3ddda404	0.10822299
238	0xbd8917d7	-0.06694
239	0xbdf6c297	-0.12048834
240	0x3dabc533	0.08387222
241	0xbddf311a	-0.10898037
242	0x3e0616c7	0.13094626
243	0x3d997065	0.07492141
244	0xbe30c928	-0.17264235
245	0xbdf60416	-0.12012498
246	0x3d8d201c	0.0689089
247	0xbd81b275	-0.06332866
248	0xbd921f94	-0.07134929
249	0xbe129c96	-0.14317545
250	0xbe0a7a42	-0.135232
251	0x3cfa6091	0.030563625
252	0x3c328ec3	0.010898295
253	0x3de8686c	0.11348042
254	0xbe3c5652	-0.18392304
255	0x3d7ab514	0.061207846

block2.downsample.0.bias f4 [8]
0	0xbdf994e5	-0.121866025
1	0xbdde2475	-0.108467974
2	0x3d215f73	0.039397668
3	0xbb88c07b	-0.004173336
4	0x3d71565d	0.058920253
5	0x3e087893	0.13327245
6	0xbe2b3cb8	-0.16722381
7	0x3c8b8275	0.01702998

block2.downsample.1.weight f4 [8]
0	0x3f795a25	0.97403175
1	0x3f77cec8	0.967999
2	0x3f7a38db	0.97743005
3	0x3f80c178	1.0059042
4	0x3f7c6bff	0.9860229
5	0x3f7efbcd	0.9960297
6	0x3f81b75e	1.0134084
7	0x3f766e65	0.962622

block2.downsample.1.bias f4 [8]
0	0xbc3e6f22	-0.011623176
1	0x3ba54462	0.0050435523
2	0x3be11eab	0.006870111
3	0xbcdbb75c	-0.026820831
4	0x3d237e50	0.039915383
5	0x3d5943cf	0.053043183
6	0xbc45c653	-0.01207121
7	0x3c5d1f38	0.013496213

block2.downsample.1.running_mean f4 [8]
0	0x3da1280d	0.07868967
1	0xbd2f7ecf	-0.042845543
2	0xbe1c916f	-0.15289854
3	0x3e15a7ba	0.14614764
4	0xbed0e989	-0.40803173
5	0xbc85493d	-0.016270274
6	0xbf061413	-0.5237438
7	0xbde8fe90	-0.11376679

block2.downsample.1.running_var f4 [8]
0	0x3ea14436	0.31497353
1	0x3eac4eae	0.33653778
2	0x3f49dfb5	0.78856975
3	0x3edb2a88	0.42805886
4	0x3f944592	1.1583731
5	0x3f35bdfc	0.7099302
6	0x3fce1a8d	1.6101853
7	0x3ec6c97a	0.3882559
