checkpoints/checkpointCVAE_trained.pth (torch, 287600 bytes, 181 tensors)

conv1.weight f4 [2, 1, 4, 4]
000000 e9 37 0a 3d d5 fc 6e be 2e 66 65 3c 9b bc 58 be
       0.033744726 -0.23338635 0.014001412 -0.21165697
000010 2e d0 31 3e f0 aa 09 be c3 d5 c0 3c 59 4e 60 3e
       0.1736457 -0.13444114 0.02353943 0.21904887
000020 b8 77 26 bd 4f 98 44 3e 68 c1 19 be db 71 08 be
       -0.040641516 0.19198726 -0.15015185 -0.13324682
000030 e5 eb 85 be 76 38 87 bd 15 96 3b bd 93 e7 00 bd
       -0.26156536 -0.06602566 -0.045797426 -0.031470846
000040 45 e2 1a be 4f df 12 3d e1 bf 3b 3e 31 b6 e4 3d
       -0.15125377 0.035857495 0.18334915 0.11167563
000050 e8 50 d6 3d 01 7d 1d 3e 93 c7 77 3e 2d 0e cf 3d
       0.104646504 0.15379716 0.24197225 0.10110126
000060 6b e2 5b bd 48 41 3c be e3 8c 30 3e 84 b9 3a bd
       -0.053682726 -0.18384278 0.17241244 -0.045587078
000070 52 32 09 3e 8f 74 95 bc de c2 dc bd aa 03 81 3e
       0.13398102 -0.018244056 -0.107793555 0.25198108

conv1.bias f4 [2]
000000 97 7e 64 3d 7a 7e 97 3c
       0.055784788 0.018492926

block1.conv1.weight f4 [4, 2, 3, 3]
000000 30 cb 45 3b 34 18 78 bd 11 18 43 3e 78 eb 33 be
       0.0030180924 -0.060569957 0.1905215 -0.17570293
000010 68 da 26 be 03 58 15 be 39 df 4b 3d 50 fc 5f 3e
       -0.16294253 -0.14584355 0.04977343 0.21873593
000020 39 e8 48 bc 3f 57 5a bd e7 d9 56 be e2 49 cd bd
       -0.012262397 -0.05330586 -0.2098156 -0.10023858
000030 b2 f4 09 3e 3f 01 88 bd 18 ee 13 3c ac 90 29 be
       0.1347225 -0.06640863 0.009028934 -0.16559094
000040 0f c4 a7 bd 0e 80 a7 bd 50 59 29 be d7 c8 43 3d
       -0.08191692 -0.08178721 -0.16537976 0.047798958
000050 cc 97 50 be 96 be 3c 3e d3 52 dc 3d ca 30 49 3e
       -0.20370406 0.18432078 0.10757985 0.19647518
000060 f0 91 04 be 8d 8d 3c 3e a0 ab 0e be d7 66 6e bd
       -0.12946296 0.18413372 -0.13932657 -0.058203544
000070 83 fa 19 bd d8 e1 04 be 44 0c d0 3d 84 2e 3b be
       -0.037592422 -0.12976778 0.101585895 -0.18279463
000080 da 3a 71 bc c3 52 de bd 5b 5a bd bd d0 12 45 3e
       -0.014723504 -0.10855629 -0.092457496 0.19245458
000090 19 18 b6 3d f7 c6 22 3d b1 e2 17 be f7 6c 52 3e
       0.08891315 0.03974053 -0.1483257 0.2054938
0000a0 36 14 d3 3c 07 d1 00 bd 03 06 84 3d dc 87 1b 3d
       0.025766473 -0.031449344 0.06446459 0.037971362
0000b0 a0 58 27 3e a6 e1 29 3d f2 95 dc bd fe 56 29 3d
       0.16342402 0.04147496 -0.10770787 0.041342728
0000c0 5d 8d ea bc e8 85 03 be 1f 93 30 be 31 50 89 3d
       -0.02863186 -0.1284405 -0.17243622 0.067047484
0000d0 8f 03 44 3e 5b a2 90 bd 7c 3c 4b bb 34 95 90 bd
       0.19141982 -0.07062217 -0.0031011393 -0.07059708
0000e0 c3 66 67 be 79 ce 4f 3e 7b 91 91 bc cd 3f 57 3e
       -0.22597794 0.20293607 -0.017769566 0.21020432
0000f0 04 6a 3a be 63 18 4a be 2d 45 ec bd 73 82 17 be
       -0.18204504 -0.19735865 -0.11536632 -0.14795856
000100 18 7b 6d 3e cb da 1d 3e 1a 92 83 3c 6f c8 ba 3c
       0.23191488 0.15415494 0.016060878 0.022800652
000110 3c da 07 3e 5e d5 c9 bd 9c 37 38 bd 3f f6 28 3e
       0.13266844 -0.0985515 -0.04497491 0.16500185

block1.conv1.bias f4 [4]
000000 fb d7 f1 3c c8 3c bf 3d 8d 42 38 be 34 24 06 bd
       0.029521933 0.09337765 -0.17994137 -0.03274937

block1.bn1.weight f4 [4]
000000 64 84 7e 3f 65 4f 7e 3f 18 2e 80 3f 50 c4 80 3f
       0.9942076 0.99339896 1.0014067 1.005991

block1.bn1.bias f4 [4]
000000 45 52 8d bb 43 cd 8b ba 24 6a f5 bb c4 ea 32 3c
       -0.004312786 -0.0010666031 -0.0074894596 0.01092023

block1.bn1.running_mean f4 [4]
000000 60 08 1b be a1 eb 09 bd f6 87 ad be 4b 54 4e 3e
       -0.15139914 -0.03367198 -0.33892792 0.20149343

block1.bn1.running_var f4 [4]
000000 ae 83 e2 3c be 25 df 3c da 07 05 3d 0a ea 7f 3d
       0.02765068 0.027239677 0.03247819 0.062479056

block1.conv2.weight f4 [4, 4, 3, 3]
000000 a3 17 66 bc 92 a1 60 bd 37 f5 2b 3d af a5 01 3e
       -0.014043721 -0.054841585 0.041981902 0.1266086
000010 b9 21 a5 bd 17 bc cc bd 3c 00 29 3e 0e 4c 71 3c
       -0.08063073 -0.09996813 0.16503996 0.0147276055
000020 b1 70 2b 3e d1 b4 05 bd ee 60 aa bd fe 4e b0 3a
       0.16742207 -0.032643143 -0.08319269 0.0013451276
000030 fc 48 7f bc d5 8d ee bd d9 49 2e 3e 38 e5 8f bd
       -0.015581366 -0.11648146 0.17020358 -0.07026142
000040 21 33 fd bd 57 34 d5 3c 44 01 5a 3d c0 46 de bc
       -0.12363268 0.026025934 0.053223863 -0.027133346
000050 e5 90 20 3e 81 2f f7 3c da eb 76 bc 42 24 87 3d
       0.15680273 0.030174019 -0.01507088 0.065987125
000060 62 fb 7b 3c e4 75 04 3e 99 d4 33 3e fa fa 90 3d
       0.015379759 0.12935597 0.17561568 0.0707912
000070 fc 1c aa bd 76 61 95 3c 21 51 05 be c0 05 6c 3d
       -0.083063096 0.01823495 -0.1301923 0.05762267
000080 f0 03 33 bd f0 9f 13 bd 7f ba c3 bd 30 68 d1 bd
       -0.043704927 -0.0360412 -0.09557056 -0.1022495
000090 84 cf 01 3e 1c 8d af 3d bc 52 f8 3d 4b d8 f8 bd
       0.12676817 0.08571836 0.12125155 -0.121506296
0000a0 59 47 b4 3d d8 3e c8 bd 59 6d 01 3e 80 1a 55 bd
       0.08802671 -0.097776115 0.12639369 -0.052027225
0000b0 24 31 1c be 0e 22 1d be 98 e8 8d bd e0 35 9a 3c
       -0.1525312 -0.15345022 -0.06929129 0.018824518
0000c0 f4 41 24 be a5 57 00 be e3 1b aa 3d 98 eb 04 be
       -0.16040784 -0.12533434 0.083061 -0.12980497
0000d0 76 00 f9 3d 22 6f a4 bd 27 72 0c be 0e 3e 77 3d
       0.12158291 -0.080290094 -0.1371542 0.060361914
0000e0 72 7e 09 bd ec fd e1 bd 99 b7 d9 bd 45 82 1d 3e
       -0.033567853 -0.1103476 -0.106307216 0.15381725
0000f0 96 11 08 3e f6 18 0f be 9b 70 c5 3c 90 b5 3d 3d
       0.13287959 -0.13974366 0.024101546 0.04631573
000100 3c 1f 09 3e 82 27 88 bd 79 c2 f0 3d 31 91 17 3e
       0.13390821 -0.066481605 0.11755843 0.1480148
000110 34 fd 09 3d d0 56 55 3d 25 38 6a 3d ad c0 16 3e
       0.03368874 0.052084744 0.05718245 0.14721937
000120 3e a9 68 bd bd 66 97 3d f9 82 dd bd 8f d5 1c be
       -0.056802027 0.07392643 -0.10815997 -0.15315841
000130 cf e1 34 3e b6 03 ff bb 39 c2 17 3e 38 6e 8d bd
       0.17664264 -0.007782425 0.14820184 -0.06905788
000140 9d 8b 23 bd 4d de 9f bc ea 8e 0c bd 77 38 1e be
       -0.039928067 -0.019515181 -0.03431598 -0.15451227
000150 c8 6d b5 3d 7a 2e ab bc 76 ce 0b 3d 9b e0 03 3d
       0.0885883 -0.020896185 0.034132443 0.032196622
000160 b0 bc 62 bd a0 46 33 3e 51 a6 1d be ec d3 2a 3d
       -0.055355728 0.1750741 -0.15395476 0.04170601
000170 67 31 a0 3d 84 4c d0 3c 82 22 0e be a6 47 0b 3d
       0.07821923 0.02542711 -0.13880351 0.034003876
000180 48 e1 fb 3d fd 0f 3b 3d c6 82 81 bd 54 55 12 3d
       0.12298828 0.045669544 -0.06323771 0.035725906
000190 31 b3 a0 3c 6c d5 04 3e 44 49 70 3d 8d a8 da bc
       0.019616695 0.12972039 0.05866362 -0.0266917
0001a0 ca 92 30 3c bd b5 ad bd d7 de bb bd 7f 9a a7 bd
       0.010777185 -0.084819295 -0.09173363 -0.08183765
0001b0 e9 e7 8c 3d 36 86 6c 3c d2 12 ad ba 42 6a 22 3e
       0.06880171 0.014436295 -0.0013204461 0.15860847
0001c0 17 8f fe 3b 87 d7 29 3e 42 14 da 3d bb 7a f0 bd
       0.0077685225 0.16586123 0.10648395 -0.11742159
0001d0 c5 f7 b3 3d 20 c4 d9 bd 41 57 54 bd ec dc ed 3c
       0.08787493 -0.10633111 -0.051841024 0.029036008
0001e0 25 21 d8 bc e3 6c ff 3d e5 7a 93 3d 48 03 5c 3c
       -0.026382992 0.1247194 0.07201175 0.013428517
0001f0 81 45 d8 bd cd 0b 02 3e ce 72 d4 3d e6 07 7c 3d
       -0.10560132 0.12699814 0.1037346 0.06153097
000200 76 24 e1 bd db ec e9 bc bb 48 e6 3d fd 44 28 3e
       -0.109932825 -0.028555324 0.11244341 0.16432567
000210 fe 6f 0f be 31 38 35 3d de 7b b2 3c 02 be 27 be
       -0.14007565 0.04424304 0.02178758 -0.16381076
000220 70 4e 9c bd 50 0b e9 bc 8f b8 8e 3d a8 05 a2 3c
       -0.07632148 -0.028447777 0.069687955 0.019778088
000230 eb 6b c6 bd 7e 49 d2 bd a6 df cc bc 0b 02 82 3d
       -0.096885525 -0.10267924 -0.025008988 0.06348046

block1.conv2.bias f4 [4]
000000 73 67 00 bc a9 83 ca 3d aa ae 26 be d9 f4 fb 3d
       -0.007837164 0.098883934 -0.16277567 0.1230256

block1.conv3.weight f4 [4, 4, 3, 3]
000000 f7 94 ee bd c9 86 f4 bc be f6 67 bd 26 80 1d 3d
       -0.116495065 -0.029849427 -0.056631796 0.03845229
000010 b4 a0 b3 bb 21 41 fc 3d 78 12 38 3c f2 23 ab 3d
       -0.005481804 0.1231711 0.011234872 0.083564654
000020 37 10 83 3d ba 18 81 3d 43 16 21 3d a5 e5 ab 3d
       0.06399577 0.06303544 0.03932787 0.083934106
000030 56 fb 29 3d 33 05 a6 3d 11 36 c1 bc 86 7f ed bd
       0.04149946 0.081064604 -0.023585351 -0.11596589
000040 86 26 2a bd 3d e6 a5 3c bc 56 31 bd 0c 80 8f bd
       -0.041540645 0.020251388 -0.043295607 -0.07006845
000050 6f 29 ae bd f1 a4 1d 3e 5b d3 d5 3d 15 a0 c9 3d
       -0.085039966 0.15394951 0.104407035 0.09844986
000060 17 a2 16 be c8 98 06 be a0 c6 a4 bd a9 de 63 bd
       -0.1471027 -0.13144219 -0.08045697 -0.055632267
000070 8c a9 c2 bd c0 29 e9 bd c4 a0 4a bd 0e 08 95 3d
       -0.09504995 -0.11384916 -0.049469724 0.07276927
000080 4c fb 79 3d 86 95 fc 3d 5c 3b ce 3c 79 64 13 3d
       0.06103067 0.12333207 0.02517479 0.03598449
000090 26 e1 20 3d c5 69 f3 bd d0 8e c2 bc 84 d2 0b 3e
       0.03927722 -0.11885408 -0.023749739 0.13654524
0000a0 a6 0f 9d 3d 0d f9 a5 bd e0 76 bb 3d 47 0c 85 3c
       0.07669 -0.08104143 0.09153533 0.016241206
0000b0 ea b4 1c be 72 97 4f 3d 52 e6 0a 3e c4 13 e4 3d
       -0.15303388 0.05068154 0.13564423 0.111365825
0000c0 74 63 b9 ba 8f d3 ad 3d e9 73 f5 3d 96 4f 39 bd
       -0.0014144019 0.08487617 0.11984999 -0.045241915
0000d0 c3 f2 e0 3d dd 1e 90 3d a5 75 08 be d3 fe 0d 3e
       0.10983803 0.07037137 -0.13326128 0.13866739
0000e0 c7 cb bb bd 37 e3 5e bc 22 ae de bd 0f d1 b4 bd
       -0.09169727 -0.013603977 -0.10873057 -0.08828937
0000f0 4f 9b 60 bd 8e d1 df bd 71 d6 17 be 72 7b 96 3d
       -0.054835614 -0.10928641 -0.14827897 0.07347764
000100 fd 90 2f be a0 0f 5e 3c af 3e 7b 3d 32 20 58 3d
       -0.17145152 0.01355353 0.061339077 0.05276508
000110 63 87 33 be cc fa fe 3d 19 a6 20 be 84 5a 07 bd
       -0.17532115 0.124501795 -0.15688361 -0.033045307
000120 2f 21 2a bd 94 e8 a0 bd 39 d5 d5 bc 64 51 42 bd
       -0.041535553 -0.07856861 -0.026102649 -0.0474409
000130 dd f7 1e bd 51 c8 9e bd 98 0f e9 3d ad b8 4a 3d
       -0.0388106 -0.07753051 0.113799274 0.049492527
000140 80 56 2a be ad c2 24 3e 34 50 2b be b3 71 04 3d
       -0.1663456 0.16089888 -0.16729814 0.032334995
000150 29 04 be bd e0 7d 09 be 1c 01 0f 3d 5f 73 f6 bb
       -0.09278137 -0.13426924 0.034913167 -0.0075210775
000160 fb 7c 16 bc 44 93 96 3c ef ba 00 be 48 01 0d be
       -0.009185071 0.018380769 -0.1257131 -0.1377002
000170 d5 79 db bd d9 17 5e bd a0 8b 8f 3b 22 c5 9d 3d
       -0.10716597 -0.05422196 0.0043806583 0.07703616
000180 c7 ab 64 bd 3e 8f fc bc c8 f3 f7 bd 94 d9 0f 3d
       -0.055827882 -0.030830022 -0.121070445 0.035119608
000190 b2 c5 1a bd 02 0c 0c bd 95 72 aa bd 71 2a e3 3d
       -0.037786193 -0.03419114 -0.08322636 0.110920794
0001a0 1f a2 e0 bd 3c 4a ca bd ce 21 04 be ac 65 9e bd
       -0.10968422 -0.0987744 -0.1290352 -0.07734236
0001b0 ec 40 16 3e ae 1e f2 bd 67 57 64 3d 3b a4 08 be
       0.14673203 -0.11822258 0.055747416 -0.13343899
0001c0 ee 76 a9 3d d8 73 1a be 04 b4 22 be 2f 87 0e bd
       0.08274637 -0.15083253 -0.15888983 -0.03479689
0001d0 74 79 2e bd 95 16 74 bd 67 cf 96 3d 4c e1 ad bd
       -0.042596295 -0.05959185 0.073637776 -0.084902376
0001e0 9f f9 04 3e 62 f9 ec 3d e0 f0 e2 3d 2c c7 21 3e
       0.12985848 0.115710035 0.110810995 0.15798634
0001f0 77 b8 b9 3d 20 13 e9 bd 34 da 11 be 42 23 3e bd
       0.09068387 -0.11380601 -0.14243394 -0.046420343
000200 c8 66 f7 3d 6d e5 de bd c6 78 35 3d 22 b4 b9 3d
       0.12080151 -0.10883603 0.04430463 0.09067561
000210 56 2d dd 3c 37 c4 05 be 07 eb f1 bc b9 e4 80 3d
       0.026999157 -0.13063131 -0.029531015 0.062936254
000220 02 35 c5 bc e8 b8 a0 bb 86 47 18 be 3e 2e 1d be
       -0.024073128 -0.004904855 -0.14871034 -0.15349671
000230 5e d2 f4 3b 93 0d 50 3d 98 6b 10 bc b6 20 01 bc
       0.007471367 0.050794195 -0.008814715 -0.007881334

block1.conv3.bias f4 [4]
000000 9d 01 ed bc 9e 32 8a bd bb b3 af bd df 23 5c 3d
       -0.028931433 -0.06747936 -0.08579203 0.053745147

block1.bn2.weight f4 [4]
000000 92 65 80 3f 42 ff 83 3f 93 3f 80 3f 05 f3 83 3f
       1.0030997 1.0312274 1.0019401 1.0308539

block1.bn2.bias f4 [4]
000000 6a 02 ca 3b 00 7f 00 3c 24 6f 7b 3c dc 9a b6 bc
       0.0061648386 0.007842779 0.015346322 -0.02229064

block1.bn2.running_mean f4 [4]
000000 10 a2 1f bc 33 d0 bb 3d 1a 56 c8 3c 25 95 2f 3e
       -0.009743229 0.0917057 0.024455119 0.17146738

block1.bn2.running_var f4 [4]
000000 82 b2 1e 3e 05 a8 e3 3e c3 e6 47 3e c8 10 06 3f
       0.15497783 0.44464126 0.19521622 0.52369356

block1.downsample.0.weight f4 [4, 2, 3, 3]
000000 a4 fb 53 be 2b 41 d0 bd eb 94 17 be c4 73 23 be
       -0.20701462 -0.1016868 -0.14802901 -0.1596213
000010 30 eb 1b be 89 9d 47 be af c7 2a 3e 43 d8 19 be
       -0.15226436 -0.19493689 0.16677736 -0.15023904
000020 20 02 b2 3a e7 5e 1b be e5 e6 f3 bd e6 0e 09 3e
       0.0013580956 -0.15172921 -0.11909274 0.1338459
000030 1e e5 7a bd c7 bd 5a 3c 41 39 4e 3e 17 06 19 3d
       -0.06125366 0.0133509105 0.20139028 0.037359323
000040 77 cb 32 3e 9c 1b 71 3e 36 f9 3a bd de ff 5c bd
       0.17460428 0.23545688 -0.045647822 -0.05395495
000050 cb 13 62 3e eb 5f 6a be 29 20 52 be ce 7a 21 3e
       0.22077863 -0.22888152 -0.2052008 0.15769503
000060 c8 cf c5 bc 26 d3 ea bd 30 4c 8b bd 29 2f e0 3c
       -0.02414693 -0.114660546 -0.06801641 0.027366238
000070 44 70 59 3e 4d fa 03 3e 1c db 4f be 0a 30 72 3e
       0.21234232 0.12888451 -0.20298427 0.23651138
000080 87 00 3d be 97 b0 95 3d c9 00 b8 3d b2 1e c8 bd
       -0.18457232 0.073090725 0.08984525 -0.0977148
000090 ad de 07 be 4a 30 18 be ea 0c 84 bd 79 98 12 3e
       -0.13268538 -0.14862171 -0.06447776 0.14315976
0000a0 2d d8 24 3d 74 73 5c be f6 7e 74 be 86 7f 1e be
       0.040245224 -0.21528417 -0.23876557 -0.15478334
0000b0 52 29 b6 bc e6 40 34 3e c8 bc 29 3e 1a c5 1f 3e
       -0.0222365 0.17602882 0.1657592 0.15602532
0000c0 d7 44 21 3e fa a1 2d be 69 d3 3a 3d b6 0a 4c be
       0.15748917 -0.1695632 0.045611773 -0.19925961
0000d0 a1 30 b8 bd 83 6c 0f 3a 24 6b 89 bd f8 7b 81 be
       -0.0899365 0.00054711866 -0.067098886 -0.25289893
0000e0 7e 9e 27 bd 9e 56 91 3c 8a 30 ac bd 7b cd b7 bd
       -0.040922634 0.017741498 -0.084076956 -0.08974739
0000f0 dd cb 31 3e 50 59 3f 3e 3d 8a 75 be f9 e3 ff bd
       0.17362924 0.18686414 -0.23978515 -0.12494654
000100 e9 ac 0c 3d 8c 5d 23 3e 4b 7d 79 3e 41 45 ef bd
       0.034344587 0.15953654 0.24364202 -0.11683131
000110 a4 41 25 3e ca e7 e9 3d 8f 66 2e be 25 79 f5 bd
       0.16138321 0.114211634 -0.1703131 -0.11985997

block1.downsample.0.bias f4 [4]
000000 e2 dc 2f be 3b 71 87 3d fc 88 5c 3e e4 76 cf 3d
       -0.17174104 0.06613394 0.2153663 0.101300985

block1.downsample.1.weight f4 [4]
000000 4a ae 7d 3f 3e 33 7e 3f 5c 70 82 3f 05 5e 7b 3f
       0.9909407 0.9929694 1.0190539 0.9819034

block1.downsample.1.bias f4 [4]
000000 6a 02 ca 3b 00 7f 00 3c 24 6f 7b 3c dc 9a b6 bc
       0.0061648386 0.007842779 0.015346322 -0.02229064

block1.downsample.1.running_mean f4 [4]
000000 a3 53 51 3e e0 a8 71 3e 2d c1 f7 3e 95 5f 84 3e
       0.20442061 0.23599577 0.4838957 0.25854173

block1.downsample.1.running_var f4 [4]
000000 cf 8c 1f 3e 9e e8 65 3d 7f fc b5 3d 93 1e 26 3d
       0.15581058 0.056130044 0.088860504 0.0405565

block2.conv1.weight f4 [8, 4, 3, 3]
000000 40 35 3e bd 75 72 c9 bd 6f a4 a6 bd f3 29 f7 3c
       -0.046437502 -0.09836284 -0.08136832 0.03017137
000010 b6 bd 8c bd 94 a4 01 3e 6c e1 dc 3d 4a 46 2d bd
       -0.06872122 0.12660438 0.10785183 -0.04230336
000020 14 42 58 bd 37 44 f8 3d c2 1e 3f 3d 1e ed f3 3c
       -0.052797392 0.12122386 0.046660192 0.029776152
000030 27 90 17 be f0 92 85 3d af 21 d2 3d 17 6f 3f bd
       -0.14801084 0.06522167 0.10260331 -0.046736803
000040 3a eb d6 3b 70 ef e3 bd d1 ad 02 3d 67 1d 0b 3d
       0.006558803 -0.111296535 0.031904045 0.033963587
000050 b1 41 e2 bd f3 dd c4 bc f1 0e 9e bd 12 9a 00 3d
       -0.11047686 -0.024031615 -0.077176936 0.031396933
000060 fc db 1e 3e cd 99 22 be 7b 1e 0e 3e 22 64 4e bd
       0.15513605 -0.15878983 0.13878815 -0.050388463
000070 73 1e 21 bd 92 60 1a 3e fc 46 82 bd 2a c2 55 3c
       -0.03933568 0.15075901 -0.063611954 0.013046781
000080 e4 8e e3 3d 3a b2 9b 3d 6b a5 df 3d 1a d6 2b 3e
       0.111112386 0.076023534 0.10920223 0.16780892
000090 3c 3e 01 be 42 b2 58 3d f1 db 4d 3d 47 1d ff 3c
       -0.12621397 0.052904375 0.05025858 0.03114189
0000a0 a5 6a 1d 3e 35 95 e7 bc 8a 35 37 bc 7f 18 99 3d
       0.15372713 -0.02826939 -0.011182198 0.074753754
0000b0 1f 2a 11 be d7 8e 18 3e 36 c2 ce bd 74 b6 35 3e
       -0.14176224 0.14898239 -0.100956365 0.17745382
0000c0 0d 85 15 3d 1f 87 88 bc 4b ae aa 3d 50 29 b4 3d
       0.03650384 -0.016665993 0.08334025 0.08796942
0000d0 ea 7e 03 3e 42 98 08 3e 43 e6 de bd 99 f8 cd bd
       0.12841383 0.13339332 -0.10883763 -0.10057182
0000e0 0b 3a fd 3d cc 9a 21 bb 99 6f 08 be 30 44 67 bd
       0.123645864 -0.0024658917 -0.13323821 -0.056461513
0000f0 8f 69 75 bc 88 ec cd bd 7f 94 54 3d 07 6a 74 3d
       -0.01497878 -0.100548804 0.05189943 0.059671428
000100 3c db e6 3c 2d 4b 68 3d a8 82 0a 3e 7c 8d d4 bd
       0.028180711 0.05671232 0.13526404 -0.103785485
000110 c7 cd c8 bd 30 0d 10 bb 34 6e 0b 3e 8c 78 2e bd
       -0.09804874 -0.0021980517 0.13616258 -0.04259543
000120 ae 5a 79 bd ac 6c e3 3d 36 2b 49 3d 29 3c 24 bd
       -0.060877495 0.11104712 0.049113475 -0.040096436
000130 d0 5e 0c 3b c0 0f 6c 3c 2d 77 d2 bd bc 1a 82 bd
       0.0021418817 0.014408052 -0.10276637 -0.063527554
000140 fa e5 03 3e b8 86 1f be 5f b4 9e bd 05 9f c3 3d
       0.12880698 -0.15578735 -0.07749247 0.09551815
000150 ce 6c 32 3d 92 38 b5 3d 3d d2 48 3d 10 95 13 3d
       0.043560795 0.088486806 0.049028624 0.03603083
000160 85 ec f8 3d 95 25 b6 bc f3 67 08 3e 25 87 08 3e
       0.121544875 -0.022234717 0.13320903 0.13332804
000170 23 c9 3d 3d 25 0e b3 bc 08 df 88 bd 66 18 15 3e
       0.046334397 -0.02185733 -0.06683165 0.14560089
000180 79 61 6b bd 02 e7 5a bd c2 81 d3 38 63 f9 06 bd
       -0.057466004 -0.053442962 0.00010085433 -0.032952677
000190 0f 94 61 3d 5a 50 04 bc 52 37 02 3d 04 e2 ba 3c
       0.05507284 -0.008075798 0.03179104 0.02281285
0001a0 3a dd 52 bc 60 f4 9a 3d c5 95 a9 3d 3f eb d7 bd
       -0.012870127 0.07566142 0.082805194 -0.105429165
0001b0 66 7c a7 3c 6f 8d a4 3d 77 95 79 bd 3a e3 be bd
       0.02044506 0.08034789 -0.060933556 -0.09320684
0001c0 87 73 54 3b 60 d1 8d 3d 53 2c f8 bd 01 8e 27 be
       0.0032417492 0.06924701 -0.12117829 -0.16362764
0001d0 ac f3 0b 3c 55 09 d5 bd 77 5e c5 3d 84 84 81 ba
       0.008541983 -0.104021706 0.09637158 -0.0009881412
0001e0 08 49 e6 3c 28 d8 e9 3b fd 9c ce 3d 59 01 5c 3d
       0.028110996 0.0071363635 0.10088537 0.053712223
0001f0 78 69 d5 bd f8 f3 e8 3d 49 2d eb 3d 9e 4d 0d bc
       -0.10420507 0.11374658 0.11483247 -0.008624462
000200 7d 5b 20 3e ec a2 03 3c cb 10 d2 3d b9 8c 03 3e
       0.156599 0.008034449 0.10257109 0.1284665
000210 03 ea 94 bb 4a f5 11 bc c2 d6 d1 bc 17 52 66 3d
       -0.004544498 -0.008908579 -0.0256151 0.05623063
000220 07 dd bf bd 29 83 e7 bd e2 27 a1 bc cf a9 1d be
       -0.093683295 -0.11304314 -0.019672338 -0.15396808
000230 17 b5 5a bd b3 1b 15 3e cc b0 21 bd 38 a0 0f 3c
       -0.053395357 0.14561348 -0.039475247 0.0087662265
000240 32 82 02 be c2 08 c0 bd 8b c7 fe bd d7 0b da 3d
       -0.12744978 -0.093766704 -0.124404036 0.106467895
000250 18 42 c5 3d 55 3e 49 bc f0 c0 09 be 22 48 fe 39
       0.09631747 -0.0122829275 -0.13452506 0.00048500398
000260 12 66 0e be 29 ca ef 3d f8 5a fc bd b6 bd 41 3d
       -0.13906124 0.11708481 -0.123220384 0.047300063
000270 d3 36 7b bd 7d 14 07 be a7 67 27 3d 82 6a 61 3d
       -0.06133158 -0.1319141 0.040870335 0.055033214
000280 44 f5 1f 3e e0 d3 cb 3d f9 a7 a0 3d 9b db 14 3e
       0.15620905 0.09952521 0.07844538 0.14536898
000290 9b 61 1d bd 43 01 cd 3d e3 30 e1 3d 1c 1c 2b 3e
       -0.038423162 0.10010006 0.109956525 0.16709942
0002a0 48 24 b3 bc b0 ac 23 3d b0 e1 d9 3d bd eb ca 3d
       -0.021867886 0.03995961 0.106387496 0.09908245
0002b0 08 a6 02 be 04 c4 1f 3e 55 04 9c bd ae 87 07 bd
       -0.12758648 0.15602118 -0.07618014 -0.03308838
0002c0 8e b6 1e be 3a 90 ba 3d 22 10 f3 3d 08 bb 07 bd
       -0.15499327 0.0910954 0.118683115 -0.03313735
0002d0 5d 18 aa bd 38 aa bc bd 38 9c a0 3c 50 99 80 bd
       -0.08305428 -0.09212154 0.01960574 -0.06279242
0002e0 fa d6 ff 3d cf ac 61 bd 19 cb 14 3e 8a 56 d1 3d
       0.124921754 -0.055096444 0.145306 0.10221584
0002f0 98 f1 14 3d 29 fb 18 be 9f 01 e9 3d db 46 82 bd
       0.036363214 -0.1493956 0.11377262 -0.06361171
000300 3d 82 12 be d9 c1 25 be a3 da 3e 3d 55 d2 c6 3c
       -0.14307494 -0.16187228 0.046595227 0.024270216
000310 2e 19 02 be d8 24 e6 bd 47 37 10 be c5 75 a5 3d
       -0.12704918 -0.11237496 -0.14083587 0.080791034
000320 5f 3c 90 3d fa 54 d1 bd 6c 11 c5 3d f1 eb 12 bd
       0.07042765 -0.10221286 0.096224636 -0.035869543
000330 c2 03 72 bd b5 3a b7 bc aa d4 b8 3d 77 e1 9f 3d
       -0.059085615 -0.02236686 0.090249375 0.07806676
000340 27 eb 07 3d 37 2e 24 be 1b 9e 0f be d2 a7 12 be
       0.033183243 -0.16033255 -0.14025156 -0.14321831
000350 f8 ce 98 bc aa 73 93 3d db de 1f 3d 4a 10 14 3e
       -0.018653378 0.071997955 0.03903089 0.14459339
000360 17 b3 ea 3d db 62 b2 3d 34 35 1a bd 74 4c a0 bd
       0.1145994 0.087102614 -0.037648395 -0.07827082
000370 50 fa 0a 3e 44 9c 26 3e 25 7a 50 3d 60 6f 7b 3a
       0.13572049 0.16270548 0.050897736 0.00095914863
000380 55 a5 c0 3d 47 8b ac 3d 8c 23 ec bd 30 c6 a4 bd
       0.094065346 0.084250025 -0.115302175 -0.08045614
000390 4e dc 22 3e e1 08 c7 bd 01 cc a7 3c b9 29 89 bd
       0.15904352 -0.097184904 0.020483019 -0.06697411
0003a0 c7 f9 ba 3d 8d 85 d3 bc f5 61 03 bb 86 39 0e 3d
       0.091296725 -0.025820518 -0.00200474 0.034722827
0003b0 ec 34 5d bd aa 9c 5d 3d cf 7b 0f be 57 9b f0 3d
       -0.05400555 0.054104485 -0.14012073 0.11748379
0003c0 2c 64 9f bd cd 45 04 be 38 91 94 3c d3 2c a1 3c
       -0.07782778 -0.12917252 0.018135652 0.019674694
0003d0 c0 2b 70 3d 69 74 ab 3d 4d 32 d7 bd 39 7a c7 bc
       0.058635473 0.08371813 -0.10507641 -0.024350272
0003e0 fb 51 aa bc f7 7b 31 3d 31 65 09 bc a8 2d f9 3c
       -0.020791044 0.043331113 -0.008385942 0.030417278
0003f0 a3 e0 c6 bd ea a2 f3 bd 7d 9a 5e 3d a3 15 93 bc
       -0.09710815 -0.11896308 0.05434655 -0.017954653

block2.conv1.bias f4 [8]
000000 f0 ba dc 3d 2f eb 77 3c e6 4a cd bd ad c4 10 3b
       0.10777843 0.015131756 -0.10024051 0.0022089884
000010 95 1e 02 3e 34 11 8e bd b5 dc a8 bd 5d 03 04 be
       0.12706979 -0.06936875 -0.082452215 -0.12891908

block2.bn1.weight f4 [8]
000000 94 9c 81 3f 23 ba 80 3f 30 f7 7c 3f c1 ff 7c 3f
       1.0125909 1.0056804 0.9881468 0.9882775
000010 bf 83 81 3f c4 aa 7d 3f 6e e8 7e 3f 2d 18 80 3f
       1.0118331 0.9908869 0.9957341 1.0007378

block2.bn1.bias f4 [8]
000000 03 5e 17 3b 0b 3c ae bb 52 5b 4a bc 4a 8f c4 bb
       0.0023096807 -0.0053172163 -0.012350874 -0.0059985267
000010 58 1f ad 3c 75 a6 71 bb b1 07 cd 3c 86 8d 86 bc
       0.02113311 -0.0036872898 0.025028082 -0.016424906

block2.bn1.running_mean f4 [8]
000000 ec e7 85 3e 12 ba 94 3e ae 90 60 bd 5c 6a 18 3e
       0.26153505 0.2904821 -0.054825477 0.14884323
000010 26 02 06 3f ee 2f 31 be 58 25 2d bd 64 9a 8e be
       0.5234703 -0.1730344 -0.042271942 -0.27852166

block2.bn1.running_var f4 [8]
000000 31 44 30 3f f5 52 0a 3f 74 3f 34 3f ae ca 44 3e
       0.6885405 0.5403283 0.7040932 0.19217941
000010 30 00 98 3f d5 f3 3d 3f 2d de 7f 3e 84 de 52 3f
       1.1875057 0.74200183 0.24987097 0.8237078

block2.conv2.weight f4 [8, 8, 3, 3]
000000 0c bb e3 bd 2e 12 40 3d a3 d5 f5 bd 3e 78 f8 bc
       -0.11119661 0.046892338 -0.120036386 -0.030330773
000010 0c 85 ad 3d b8 a8 3f 3d d8 98 e0 bd cd 17 a1 3d
       0.08472642 0.046791762 -0.10966653 0.07865868
000020 16 57 d0 bc 93 01 b1 3a 0d e0 2e 3d cc 3e 15 3c
       -0.02543215 0.0013504497 0.04269414 0.00910921
000030 ef b3 8b 3d aa 7a 2c bd d0 21 bd bd a3 f6 c8 3d
       0.06821429 -0.04210917 -0.09234965 0.09812667
000040 d4 17 5e 3d b7 47 83 bd b8 14 d3 bd 97 85 e2 3d
       0.054221943 -0.06410163 -0.10306686 0.110606365
000050 fb 5d 9c bd 70 64 47 bd 49 aa 82 bd f2 f4 4e 3c
       -0.07635113 -0.04867977 -0.063801356 0.012631642
000060 3c 62 a1 3d bb 71 9c bd ba 83 87 bd e5 4c 3c 3c
       0.07880065 -0.0763888 -0.06616922 0.011492942
000070 14 93 8a bd 8c c7 40 3d 20 17 92 3d e0 40 d4 bd
       -0.06766334 0.047065303 0.07133317 -0.103639364
000080 62 37 47 3d 51 ce 25 bd 57 ff d0 3d 4f 76 18 3b
       0.0486368 -0.04047996 0.10204952 0.0023263877
000090 91 4f a7 3c a0 f2 7a bc ad a9 8b bd 8b 15 94 bd
       0.020423682 -0.015316635 -0.068194725 -0.072306715
0000a0 8d 2a bb bd 82 9a 66 bd e3 22 a9 3d ab 33 2d bd
       -0.09138975 -0.056299694 0.08258607 -0.042285603
0000b0 dd 3e 60 3d ae 8f af bd 7d 0d 1e 3d 76 a3 4a bd
       0.05474745 -0.085723266 0.038587082 -0.049472295
0000c0 e2 79 a5 ba 5a f3 85 3d 28 00 ba bd 4d be 01 bd
       -0.0012624825 0.06540556 -0.09082061 -0.031675626
0000d0 3a c5 b0 3d f7 74 ae 3d 22 a4 a9 3c 96 24 69 3d
       0.08631368 0.08518403 0.020708147 0.056919657
0000e0 06 87 a0 3d fb fa 84 bd 04 f9 6c bd 22 d8 aa bd
       0.07838254 -0.06493183 -0.057854667 -0.08342005
0000f0 82 27 aa bd ed 6d bf 3c e8 02 95 3d b6 81 a3 bd
       -0.08308317 0.023367846 0.07275945 -0.07983725
000100 89 7b 56 bd 03 9c 42 bd 38 de b8 3d d5 0e d0 bd
       -0.052363906 -0.047512066 0.0902676 -0.10159079
000110 37 e6 91 bd cf 07 c5 3a 37 44 69 3d c6 4e 60 bd
       -0.07123988 0.0015032234 0.05694982 -0.054762624
000120 7f 51 84 3d 65 c1 ab bd 63 b3 ac 3c ca 64 f3 3b
       0.06460857 -0.083864965 0.021081632 0.0074277865
000130 65 3b ca 3c 7d 7f f2 3d 2d 84 75 3d bb b6 ec bd
       0.024686525 0.11840723 0.059940506 -0.115582906
000140 4e a4 e5 3c 64 e4 a7 3d 6e ad eb 3d 77 4d c0 3d
       0.028032448 0.08197859 0.115076885 0.09389775
000150 57 08 6b bd a4 22 ea 3d 01 68 e0 3d e6 55 97 3d
       -0.057381 0.114323884 0.10957337 0.07389431
000160 70 4f 31 3c 46 00 8b 3d aa 40 b2 bd aa 04 2b 3d
       0.010822162 0.067871615 -0.0870374 0.041752495
000170 11 88 79 bd 0e dd fe 3c 3a 3c 80 bc ba 7c a7 bd
       -0.06092078 0.031111266 -0.015653718 -0.081780866
000180 44 26 2c bd d2 4d a5 bd f3 95 90 3d 8c 8d dd 3d
       -0.04202868 -0.08071484 0.070598505 0.108180135
000190 cb 00 61 3d 87 82 df bc 7d a3 d0 bd 96 37 9f bd
       0.054932397 -0.02728392 -0.10187433 -0.07774274
0001a0 9b 6b 8e bc 2b f9 d3 3d 72 32 c6 3d 1b 23 ae bd
       -0.017385295 0.103502594 0.096775904 -0.085027896
0001b0 0e 21 27 3c b6 a5 fc 3a de de 40 3d 48 c1 93 bd
       0.010200752 0.001927546 0.047087543 -0.072146
0001c0 fb b2 48 3d cd b0 82 bd d2 0d a4 bc 67 89 eb 3c
       0.048998814 -0.06381378 -0.020026121 0.028752042
0001d0 c5 6a e5 3c 44 73 66 bd 00 74 8a 3b 86 c2 44 3d
       0.028005013 -0.05626227 0.004225254 0.048037075
0001e0 e5 35 59 3d 31 03 38 3d 52 bd a8 3d a9 33 06 bd
       0.053029913 0.04492492 0.08239235 -0.03276411
0001f0 35 f3 67 bc 91 32 33 3d 4f 63 a6 bd 24 2b 73 bc
       -0.014157106 0.043749396 -0.0812441 -0.0148418285
000200 e5 3f 00 bd 48 23 5d bd ae e1 ef 3d 15 ec 33 bd
       -0.031310935 -0.053988725 0.11712967 -0.043926317
000210 34 25 bb bd d5 98 a6 bd 84 22 8e bd b3 7b e5 3c
       -0.09137955 -0.08134619 -0.06940177 0.028013086
000220 03 2a 47 bd 53 a7 02 3d cd fd fa bd e6 51 39 bd
       -0.04862405 0.031897854 -0.1225544 -0.04524412
000230 b2 e5 df 3d 17 c5 c0 3d fc cd d8 bd 1e 06 38 3d
       0.10932483 0.09412592 -0.105861634 0.04492771
000240 70 37 e6 bc f5 5e 8d 3d 9e 3a 45 bd 7b 91 9a bd
       -0.028102607 0.06902877 -0.048151605 -0.075472794
000250 ce c2 d3 bd 0f ac ab 3d a6 25 d1 bd 87 64 c0 3b
       -0.103398904 0.08382427 -0.10212259 0.005871359
000260 47 61 21 3c 8b 34 b5 3d 5c 83 b8 3c 2f 78 e6 bb
       0.009849853 0.088479124 0.022523575 -0.00703337
000270 7d 71 8a 3c 2f 9c 5f 3d 43 f5 23 3d 13 32 b6 bd
       0.016899819 0.054592308 0.04002882 -0.0889627
000280 3f cd ad bd f3 7d 97 bd 4a fb 6a bd dd ec d9 3d
       -0.08486413 -0.0739707 -0.057368554 0.10640881
000290 bc da a5 3d 67 49 0f bd 0b 0d 69 bd 73 de be bd
       0.08098361 -0.03498211 -0.056897204 -0.093197726
0002a0 96 51 dc 3d a3 ed d2 3d cb 96 a4 bd 19 3c c0 3d
       0.10757749 0.10299232 -0.08036574 0.09386463
0002b0 07 be d4 3d 06 6f a6 bd 3f db ab 3d d5 47 3d 3d
       0.10387807 -0.08126645 0.08391427 0.046211082
0002c0 de c4 91 3d 20 02 cd 3c 8a 09 a6 3d 58 78 67 3d
       0.071176276 0.025025427 0.08107288 0.056511253
0002d0 db 8d a3 bd 77 23 dd bd 7f 8b c4 bd a8 8c 21 3d
       -0.07986041 -0.1079778 -0.09596919 0.03944078
0002e0 85 e2 ad 3d 6e 41 e0 3d 6a 45 ac 3c 31 cf 79 3d
       0.08490471 0.1094998 0.021029193 0.06098861
0002f0 48 f1 47 3c 01 a9 83 bd 6b dd b5 3d cd 62 d2 3c
       0.012203522 -0.06428719 0.08880123 0.025681878
000300 62 6e ba 3d 34 70 9c 3d 31 01 b2 bd 2a 9d 0d 3d
       0.09103085 0.076385885 -0.086916335 0.03457371
000310 cd c9 07 3c de 76 bb bd de 50 f1 3d f0 a9 6b 3d
       0.008287859 -0.091535315 0.11783002 0.057535112
000320 23 2c e5 3c 0d 19 f1 3c 48 25 cc 3d bf 41 f8 bc
       0.027975148 0.02943089 0.09968048 -0.030304788
000330 40 02 a4 3d 66 f2 17 3d e1 51 95 3c b5 a7 e6 3c
       0.08008242 0.037096404 0.01822752 0.02815614
000340 2e 71 1f bd 68 f2 c1 bd ea 67 3a 3d a0 eb f2 bd
       -0.038926296 -0.094700634 0.045509256 -0.11861348
000350 a5 64 c9 bd c6 a6 bf bd f0 3d b2 bd 07 70 d5 bd
       -0.098336495 -0.093579814 -0.0870322 -0.10421758
000360 3f 9e 1f 3d 4f 1a f7 3d 06 10 7c bd 47 41 c8 3d
       0.038969275 0.12065565 -0.06153872 0.09778076
000370 0d 84 c0 3d 30 7e ab bd a2 df ea 3d ac 9c 77 3d
       0.09400187 -0.08373678 0.11468436 0.06045215
000380 68 aa 3f bd c9 d0 3d 3d 1b 39 b9 3d df 14 a8 bd
       -0.04679337 0.04634169 0.09044095 -0.08207106
000390 45 5d be bd 8c 9a 9d 3d 68 f2 a7 3d 62 26 80 3c
       -0.092951335 0.07695493 0.08200532 0.015643302
0003a0 c5 98 33 bd 04 fe f3 3c 5e a4 39 bd 78 cc ca bc
       -0.043846864 0.02978421 -0.04532277 -0.024755701
0003b0 5a 0f 20 bd ed 4e 86 3d ca f1 aa 3b 90 17 ce 3d
       -0.03907714 0.06558023 0.005216812 0.10063088
0003c0 83 55 1d 3d 44 a7 ca 3c af 1a d5 3c 13 a4 e1 bc
       0.03841163 0.024737962 0.0260137 -0.027544057
0003d0 a1 ff 0c bd c2 2b 0f bd 0c 5c 9b bd ae 2c d1 bd
       -0.034423474 -0.03495384 -0.07585916 -0.102136
0003e0 53 c8 ab bd 81 51 6e bb fe 34 b4 bd 57 cb 05 bc
       -0.08387818 -0.0036364498 -0.0879917 -0.008166156
0003f0 66 56 4e 3d 8a 19 e8 3d 44 35 12 3d 82 01 02 bd
       0.050375365 0.11332996 0.03569533 -0.03173972

block2.conv2.bias f4 [8]
000000 23 29 83 bd 0d 34 c7 3c 6b de 1a bc 9f 3a 67 3d
       -0.064043306 0.024316812 -0.009452443 0.05645239
000010 12 da 76 bd 82 0b e4 bd 06 34 00 bd 9f eb d4 bd
       -0.06026656 -0.111350074 -0.031299613 -0.10396504

block2.conv3.weight f4 [8, 8, 3, 3]
000000 23 d7 b1 3d 8f 92 c1 bd b9 f6 8e 3d 1d 7e ce b9
       0.08683612 -0.09451782 0.06980652 -0.00039385344
000010 ef 36 d4 3d 8c 6a 36 3b 16 bf a6 3d b6 a5 c7 3d
       0.1036204 0.0027834503 0.081419155 0.09748404
000020 fc 9c 4b 3b 38 a9 ff bc 12 38 27 bd 58 ae 33 bd
       0.0031068912 -0.03120862 -0.040824957 -0.04386744
000030 53 ea 5c 3d dc 38 d4 3d 81 4c 9b 3d 78 1a 64 bd
       0.053934406 0.103624076 0.07582951 -0.055689305
000040 cb f7 84 3d 9e 88 df 3c 21 d3 07 3d ad 95 b4 bd
       0.06492575 0.027286824 0.033160333 -0.08817611
000050 c7 8c ee 3c 7a 00 7b 3d 94 63 dc bc c0 3a 9a 3d
       0.029119862 0.06127975 -0.026902951 0.07530737
000060 2e f3 00 3e c7 86 54 bd 79 b5 17 3d 48 fc a4 3d
       0.12592766 -0.051886346 0.0370383 0.08055931
000070 b4 7d ac 3c e0 4e 79 bd 36 d4 21 3d 87 a7 5d 3d
       0.021056034 -0.060866237 0.03950902 0.054114845
000080 19 3b d4 bc 2d 46 36 3d de b8 fc 3d fe a7 c9 bd
       -0.025907086 0.04450052 0.12339948 -0.09846495
000090 8b 36 d0 3c 69 cc 94 3d 75 1d 88 bd 1d d3 4f bd
       0.025416633 0.07265551 -0.066462435 -0.050738443
0000a0 68 21 b5 3d eb d5 0f 3d 3e a3 cd bd 45 75 c8 bd
       0.08844262 0.035116117 -0.100409016 -0.097879924
0000b0 dc b2 7d bd 10 07 31 bd 36 50 95 3d cd f1 b8 3d
       -0.06193815 -0.043219626 0.0729069 0.09030495
0000c0 6a be 6e bd 80 8d cb bd b7 09 05 bd 4c cc dc bd
       -0.05828706 -0.09939098 -0.032479968 -0.10781154
0000d0 cc 0f f7 bd 00 5c ce 3c d5 23 1d 3d 1d a7 e1 bd
       -0.1206356 0.025190353 0.03836425 -0.110182025
0000e0 8c cc 98 3c 03 e1 16 3d 0f 07 98 3c 0f b9 8b bc
       0.018652223 0.03683568 0.018558053 -0.017056016
0000f0 96 ab e9 bd 3b b2 b9 3c da 1c d3 3d a6 c0 08 3c
       -0.114096805 0.022667995 0.103082374 0.008346712
000100 2c 3f d9 3d 6a ea c4 bd dc e1 3c bd 66 9c d7 3d
       0.10607752 -0.096150234 -0.046113834 0.105278775
000110 09 71 7d 3c e8 78 85 bd 8f 53 4b bd 91 1e dc bd
       0.015468844 -0.06517202 -0.049640235 -0.107480176
000120 d1 6c df bd ec a6 30 bd f4 5a 86 bd 8a a5 a5 bc
       -0.10909427 -0.04312794 -0.06560317 -0.020220537
000130 5a a5 ec bd 4e b7 23 bd 54 6a 77 3d 81 e3 d1 bd
       -0.11554976 -0.039969735 0.060404137 -0.10248471
000140 00 cc 8e bd 94 10 9d 3d 07 ea a4 bd c1 30 ae bd
       -0.06972504 0.07669178 -0.0805245 -0.08505393
000150 3c 92 75 3d 02 4d 19 3d 97 cd d5 3c a5 8f 4e bc
       0.059953913 0.037426956 0.02609901 -0.01260749
000160 89 3b ee 3d 89 dd 52 bb f2 6e c8 3d 4a 7f 75 bc
       0.11632449 -0.0032175502 0.09786786 -0.014983961
000170 8a 3e 94 bd e3 a1 ab 3d db 65 b8 bd 08 35 80 bd
       -0.07238491 0.08380487 -0.090038024 -0.06260115
000180 83 15 82 3d 95 aa c4 3d 00 12 c5 3b 1c ec b6 3d
       0.06351759 0.096028484 0.0060141087 0.08931753
000190 3e c7 d1 3c e8 8b 7c bc 37 e5 30 3d dc 2a b4 3d
       0.025607701 -0.015414216 0.043187346 0.08797237
0001a0 d5 1a 4b 3d 50 6e da bd 4d 22 a4 3d 42 c9 bd bd
       0.049586136 -0.10665572 0.08014355 -0.092669025
0001b0 78 06 7d bd f8 20 a4 3d 2e db be bc 3b 35 65 bd
       -0.061773747 0.08014101 -0.023297872 -0.055958968
0001c0 4f a3 a4 3c ca 9a a9 3d 9d 2f bc 3d b3 0e a6 bd
       0.020097403 0.08281477 0.09188769 -0.081082724
0001d0 0d be c9 3c 39 22 23 bd ec f8 6b 3d 7a d8 c0 3d
       0.024626756 -0.03982756 0.057610437 0.0941629
0001e0 47 4b b8 bd 98 4f 49 bc 4c 31 5a 3c ba e4 0c bd
       -0.08998733 -0.012287043 0.013317417 -0.03439782
0001f0 29 8b 01 3d 9a ec c7 3d 3e eb b0 bd ec 2a 54 3d
       0.031626854 0.09761925 -0.08638619 0.051798746
000200 ff 7d 87 3d 10 d5 7e 3d 7b 8e e7 3d a4 05 bd 3d
       0.06615829 0.06221491 0.11306473 0.092295915
000210 17 70 c3 3d 49 09 d5 bc fe 4b cb 3c e0 b6 92 3c
       0.09542864 -0.026005404 0.02481651 0.017909467
000220 1b 28 5e 3d 70 9d 0f 3d 32 57 b7 bd 68 6f 0b 3d
       0.054237466 0.035062253 -0.08952178 0.034041792
000230 73 54 00 3e 74 cd 39 3d 45 58 df bb 2f 25 c2 bd
       0.12532215 0.04536195 -0.0068159425 -0.094797485
000240 89 e3 bb bd 2e 14 de bd 71 07 bf 3d dc 4b ae 3d
       -0.09174258 -0.10843693 0.09327591 0.08510563
000250 37 f3 87 3c 85 49 ea 3d a0 6a cd bd 7b 22 85 bd
       0.016595466 0.11439804 -0.10030103 -0.06500717
000260 88 28 00 3e 07 df 84 bd 5e 4f 5c 3d 4c 24 b2 bd
       0.12515461 -0.064878516 0.053786628 -0.08698329
000270 88 26 f8 3b 19 88 74 3d 22 57 b6 3d 49 39 ce 3d
       0.0075729527 0.059700105 0.08903338 0.1006952
000280 3d ce ba 3d 79 d9 10 3c fd b1 d0 ba 7a 17 85 bd
       0.09121368 0.008840912 -0.0015922185 -0.064986184
000290 35 f0 bc bd 9c be 94 bd c0 a4 b6 bd f6 8b c3 3d
       -0.09225503 -0.07262918 -0.08918142 0.0954818
0002a0 12 6b 83 3d 1b 27 85 3b 88 b3 df 3c 5f e4 de 3c
       0.064169064 0.0040634996 0.027307287 0.027208505
0002b0 cb 81 f0 bb bc d4 af bd 7c 2b bd bd 44 93 57 bd
       -0.0073396913 -0.08585498 -0.092368096 -0.052630678
0002c0 62 9c 87 3d 56 c3 e3 39 67 c1 b0 3d 3c ee ee 3b
       0.066216245 0.0004344235 0.086306386 0.0072915833
0002d0 77 40 df 3d 69 32 21 3c dc a7 78 3c 5b de 27 3d
       0.109009676 0.009838679 0.01517674 0.04098354
0002e0 07 78 9f 3d fe 16 c0 bd 10 fd 6d 3d 8c 67 1d bd
       0.07786565 -0.093793854 0.058102667 -0.038428828
0002f0 f3 88 46 3d b0 23 16 bd d2 89 c7 3d 8e bd 27 3d
       0.04847045 -0.036655128 0.09743084 0.040952258
000300 68 52 d5 bd b1 d4 d2 bd e8 0a ea 3c 4a ff 22 3c
       -0.10416108 -0.10294474 0.028569654 0.009948561
000310 99 63 ab 3d 82 e9 36 3d 84 9b fe bc 55 42 82 bd
       0.08368606 0.044656284 -0.031080015 -0.06360308
000320 c0 dc a3 bd 79 d2 2d 3d 2c b2 de 3d bd 5c b5 3d
       -0.08001089 0.04243705 0.10873827 0.08855579
000330 78 11 5e bd b5 eb 9e bd 89 87 9f 3c d9 e3 72 3d
       -0.05421588 -0.07759801 0.019473808 0.059299324
000340 56 20 01 be 71 76 82 3d c9 70 64 3b 42 a9 03 3d
       -0.12609991 0.06370247 0.0034857264 0.03214384
000350 ae e3 7a bc 55 25 54 3d 63 7a c3 3d 41 d1 52 3d
       -0.015313072 0.051793415 0.09544828 0.05146909
000360 f0 cb 93 3a 54 35 b4 3d b7 a7 ae bd 5a 13 a5 bd
       0.0011275988 0.08799234 -0.08528083 -0.08060332
000370 26 70 e3 3d e4 9c be bc 1c f1 8c 3b 7e f9 fd 39
       0.11105375 -0.02326817 0.0043012034 0.00048441807
000380 67 d0 9b 3c 55 95 af 3d 0c 70 d7 3d 6b 05 8f 3c
       0.019020272 0.08573405 0.10519418 0.017458638
000390 8d 66 10 bd 74 5f 25 bc 95 13 84 bc 6d e0 4b bd
       -0.03525405 -0.010093559 -0.016122619 -0.049774576
0003a0 d8 47 9b 3b 84 65 f5 bd ec 81 9b bd 67 a2 cf bd
       0.004738789 -0.11982253 -0.0759314 -0.10138398
0003b0 1c d9 d2 3d 45 c3 a2 3d 57 63 41 3d cf b6 b0 3d
       0.102953166 0.07947401 0.04721388 0.08628618
0003c0 35 41 38 3d b9 8a c8 3d be 8e 2e 3d 3e ec 3c 3d
       0.04498406 0.09792084 0.0426166 0.046123736
0003d0 4f db 0f bb fa f9 af bc 40 41 ca bd 37 b0 0a 3c
       -0.0021950786 -0.021481503 -0.09875727 0.008464864
0003e0 21 e7 c3 bd e9 31 7c 3d a6 98 fe bc 43 bb c7 bd
       -0.09565569 0.061571036 -0.031078648 -0.09752514
0003f0 25 71 ab 3d f0 f6 cd bc b2 6c 9a bc 41 0f bc bc
       0.0837119 -0.025142163 -0.018850658 -0.022956492

block2.conv3.bias f4 [8]
000000 74 88 62 bd 7c d3 c8 3b 0a e7 da 3d 44 27 55 bd
       -0.055305913 0.0061287265 0.106885985 -0.0520394
000010 1e 42 bb bd 74 9d b0 bc c0 25 92 3c cf c2 08 3c
       -0.0914347 -0.021559455 0.017840266 0.008347227

block2.bn2.weight f4 [8]
000000 f3 dd 7f 3f 7f 1b 82 3f 75 4b 80 3f fe 17 7e 3f
       0.9994804 1.0164641 1.0023028 0.9925536
000010 10 80 83 3f 40 8a 81 3f 36 e8 80 3f 60 66 7f 3f
       1.0273457 1.0120316 1.0070865 0.99765587

block2.bn2.bias f4 [8]
000000 a4 8d cc bc db 37 44 3c 26 1e e5 b8 2a 3f 3a 3c
       -0.024969883 0.011976208 -0.000109251865 0.011367599
000010 c9 69 09 3c df 7c 61 bc 8a 58 b3 bb 50 e9 58 bc
       0.008387038 -0.013762682 -0.005473201 -0.01323922

block2.bn2.running_mean f4 [8]
000000 8b 4a e3 bc 9f 2b 4b 3d 11 2d 54 3d b2 a7 5b be
       -0.027745506 0.049602147 0.05180079 -0.2145069
000010 0d 4b 27 bd 92 8b 99 3d 4c 21 15 3d 07 3d 8a bd
       -0.04084306 0.07497324 0.036408707 -0.06749921

block2.bn2.running_var f4 [8]
000000 9c 60 58 3e 1d 69 94 3e b0 35 0c 3e fd ae 45 3e
       0.21130604 0.28986445 0.13692355 0.19305034
000010 85 a5 94 3e c7 48 de 3e 12 8c 70 3e 6c 88 35 3e
       0.2903253 0.434149 0.23490933 0.17727822

block2.downsample.0.weight f4 [8, 4, 3, 3]
000000 5b d7 1c 3d fd 71 c0 bd bb 52 0a be d2 e0 18 be
       0.038291316 -0.093967415 -0.13508122 -0.14929512
000010 bf 77 03 3e 81 16 1c bd 34 2a 16 be b5 4e 76 3c
       0.12838648 -0.0381074 -0.14664537 0.015033414
000020 ce a9 72 bd da 61 b1 bd 3a c2 ed 3c f9 d8 37 3d
       -0.05924397 -0.08661242 0.029023279 0.044884656
000030 ff 32 d1 3b 57 e5 c3 3c a7 5f 13 3e 49 f7 d3 3c
       0.006384253 0.023913069 0.14391957 0.02587475
000040 ff 81 ee bd 71 1f bf 3d a4 2f b5 3c c8 18 9e bd
       -0.116458885 0.09332169 0.022117443 -0.077195704
000050 10 71 f7 3d 0c df 35 3d 98 c0 4a bd 41 46 15 3e
       0.12082112 0.044402167 -0.049500078 0.14577581
000060 c9 e3 19 3e 38 47 9b 3d 8f 05 1c 3e df 1c d0 3d
       0.150283 0.07581943 0.15236495 0.10161757
000070 77 f2 a2 3d a8 67 ee 3d 1d f2 03 3e 6b 13 e6 bd
       0.07956403 0.116408646 0.12885328 -0.112341724
000080 7c 20 3b 3c 81 8a 5e 3d 85 d7 4e bd 46 56 b8 3d
       0.011421319 0.054331306 -0.050498504 0.0900083
000090 32 8b ce bd 2e 38 a4 bd 34 f2 0c 3d fa 7a bb 3d
       -0.10085143 -0.08018528 0.03441067 0.09154315
0000a0 38 eb 14 3e 43 29 95 3d d0 f3 2d bd 24 28 1c be
       0.14542854 0.07283261 -0.042468846 -0.15249687
0000b0 5b 15 ab bd 61 e4 4d 3d 64 f2 56 bd ec e7 0b 3d
       -0.083536826 0.050266627 -0.052477255 0.034156725
0000c0 68 4b 32 3e db 47 9a bd e7 3c a4 3d de c4 c2 bc
       0.17411578 -0.075332366 0.08019429 -0.023775514
0000d0 4a 2b 8b 3d a2 98 3c bd 22 90 b8 3d bc c0 1c bb
       0.06795366 -0.046044 0.09011866 -0.002391859
0000e0 ca 70 83 3d c2 fa 81 bc da fa 03 3d 54 59 0b be
       0.06417997 -0.015866641 0.032221653 -0.13608295
0000f0 7a 86 3c 3e 66 b8 07 3e e1 a6 94 3d 70 25 95 bd
       0.18410674 0.13253936 0.07258392 -0.07282531
000100 45 76 b3 3d d0 de 7f 3d 7d 68 e1 bd bc d0 15 3d
       0.087627925 0.06246835 -0.11006258 0.036576018
000110 ea 43 ef 3c 7f 85 94 bd 3e 3c 9d 3d a7 cb b3 bd
       0.029207189 -0.07252025 0.07677506 -0.08779078
000120 8d 26 fc bd c3 bc 9b 3c aa 9f 24 3d 30 35 08 be
       -0.123120405 0.019010907 0.04019133 -0.1330154
000130 f4 55 bd 3c 2e 01 24 be 7b 6d e8 3d f9 96 d2 bd
       0.023112275 -0.16016075 0.11349007 -0.10282702
000140 e9 ec 79 bb 72 ee bc 3d e0 97 09 be b5 66 6c bd
       -0.0038135594 0.09225167 -0.13436842 -0.057715137
000150 89 cf 17 3d ba b3 2f bc f7 7d 8a 3c 4a 96 14 be
       0.037063155 -0.0107240025 0.016905768 -0.14510456
000160 c0 de f8 bc 2e 1e 91 bd 7b 09 a2 3d aa c3 ae bd
       -0.030379653 -0.070858344 0.079119645 -0.08533414
000170 ae d6 0a be c2 e6 07 bd 89 4a be 3d 29 1c 23 3e
       -0.13558456 -0.033179052 0.0929156 0.15928711
000180 9a 9c 89 3d f8 a0 80 bc 7c 21 9a 3d 63 0f 56 bd
       0.067193225 -0.015701756 0.07525918 -0.052260768
000190 24 1c d3 bc 83 cf 98 bd 94 4b f0 3d 86 42 b2 3d
       -0.025770254 -0.07461455 0.117331654 0.087040946
0001a0 70 2a 79 bd 70 31 dd bd 2b 02 d1 bd 72 33 4b bd
       -0.060831487 -0.10800445 -0.10205492 -0.04960961
0001b0 9a e1 18 3e 1f 5d ea 3d 0a 42 b8 3d 1e ca b0 3d
       0.1492981 0.11443543 0.08996971 0.08632301
0001c0 09 31 27 be 6f fa 30 be 2a d3 96 3c ab 10 e7 3d
       -0.16327299 -0.17283033 0.018411238 0.11282476
0001d0 f3 81 d3 bd f9 45 3d bd 44 37 07 be 23 41 17 bd
       -0.1032752 -0.04620931 -0.13204676 -0.036927354
0001e0 52 f2 d7 bc d0 29 36 be 91 63 0e 3e ca f3 cb bd
       -0.026360665 -0.17789388 0.13905169 -0.099586084
0001f0 62 f9 3d be 8e f3 71 3d 51 b0 af 3d 24 ca e6 3c
       -0.18552163 0.059070162 0.085785516 0.02817256
000200 f5 89 23 be 97 fb 21 be 96 18 3f 3c 84 22 b5 3d
       -0.15970595 -0.1581863 0.011663577 0.08844474
000210 e0 d2 06 be b4 00 f7 bd 40 aa 02 3e ec 4d ca 3d
       -0.1316638 -0.12060681 0.12760258 0.09878144
000220 cb c6 27 be 0d 08 ff 3d 54 e2 58 bd da 3b 98 3d
       -0.16384427 0.124527074 -0.05295022 0.07433291
000230 15 3e c2 3d 88 71 ef 3d c6 35 a4 bd c6 a1 06 bd
       0.094844975 0.11691576 -0.08018069 -0.032869123
000240 21 0a 1d be d6 85 15 bd 0b c0 e9 3d 0d 9c 6f bd
       -0.15335895 -0.03650459 0.114135824 -0.05849843
000250 27 d1 14 be 18 dd 67 3d f5 63 15 3e ef 55 86 3d
       -0.1453291 0.056607336 0.14588912 0.06559359
000260 f2 b8 6f bd 32 99 10 3e a8 dd cb bd 38 59 14 3e
       -0.058525987 0.1412094 -0.09954387 0.14487159
000270 4f 1d 0d 3d 19 74 0f 3e 0a 29 73 3b ad 34 04 3e
       0.03445178 0.14009131 0.0037103319 0.12910719
000280 e4 22 08 be 99 45 fd 3c 58 d9 03 bd 51 8c aa bd
       -0.1329456 0.030916976 -0.032189697 -0.083275445
000290 26 7b c5 bd c9 02 33 3e 02 3c ac 3d b0 d6 b4 bc
       -0.09642629 0.17481531 0.08409883 -0.022075027
0002a0 f0 70 65 bd e1 85 05 be 0d 7c a3 bc d0 96 c3 bd
       -0.05601591 -0.13039352 -0.019956613 -0.095502496
0002b0 89 e7 3e bd 3b d2 20 3d d2 3f 8f 3d 5a 88 2b 3e
       -0.046607528 0.03926299 0.06994595 0.16751233
0002c0 7d a3 6d 3d 5e 83 f4 3d 02 5a 9c 3d e0 5e d3 3c
       0.058017243 0.11939119 0.07634355 0.025802076
0002d0 c5 de 74 bd 77 87 7f 3c 8e 0c 20 3d 70 c9 c1 3d
       -0.059782762 0.015596262 0.039074473 0.09462249
0002e0 b3 7d 5b 3d 45 04 68 bc c5 2a 1b 3e 22 f8 87 bd
       0.053586673 -0.014161174 0.15153034 -0.066391245
0002f0 eb bc 13 be d8 a8 63 bd d5 75 22 3e b3 fb 03 3e
       -0.14427535 -0.055580944 0.15865262 0.12888984
000300 94 08 89 3b d4 c5 b5 bd 2d a0 32 3d 6c 3b a2 bc
       0.004181931 -0.08875623 0.043609787 -0.019803725
000310 a8 65 2e 3e 32 9d 7f 3d ad 5c e1 3d 6f e6 ce 3d
       0.17030966 0.062405773 0.110040046 0.101025455
000320 c9 94 e0 3c 33 c1 e9 3d 3e 61 81 bd e8 24 65 3d
       0.027414696 0.11413803 -0.063173756 0.0559434
000330 52 3d ad bd 91 d3 1f be 10 16 0d be 4f b9 6a 3d
       -0.084589615 -0.1560805 -0.13777947 0.05730563
000340 21 22 f6 3d 4e c5 b5 3c 81 49 8c bb e5 a3 11 3e
       0.12018228 0.022188809 -0.0042812233 0.14222677
000350 6a f3 f2 3c ca 1b de 3c 20 27 d8 3d d5 ce a2 bd
       0.029657084 0.02711286 0.105543375 -0.07949606
000360 e1 a2 8d 3d f0 fe 0c bd 8e ff a8 3b b1 f1 c7 bd
       0.06915832 -0.034422815 0.0051574176 -0.09762896
000370 3f 36 29 be f9 62 30 be 8e 5c 03 bc dd e3 11 bc
       -0.165246 -0.17225255 -0.008017672 -0.0089044245
000380 69 0f 0a 3d 8b b6 29 bd 24 0c 11 be 24 dd c2 3d
       0.033706103 -0.041433852 -0.14164788 0.095148355
000390 48 1a e4 bd 7f 4b d2 3c f1 67 99 3d b0 5e e1 bd
       -0.11137825 0.025670765 0.074905284 -0.11004388
0003a0 27 7c 3b 3d bd b8 12 be 07 9b d5 3c db 53 82 bd
       0.045772698 -0.14328285 0.0260749 -0.063636504
0003b0 9a d1 10 be 4d b2 33 be 64 6a 9b bc fe c9 09 be
       -0.14142457 -0.17548485 -0.01897163 -0.1345596
0003c0 8f 24 6b bd 30 6d 18 3e f8 cd be 3c 35 d2 e2 3d
       -0.057407912 0.14885402 0.023291573 0.1107525
0003d0 f8 86 8b bd e8 d3 c2 bd 51 ca ca 3d 13 4f bc bd
       -0.068128526 -0.09513074 0.0990187 -0.0919477
0003e0 68 b1 ec 3c dd fc 77 3d 3d c5 83 bd 33 29 a6 3d
       0.028893188 0.060543884 -0.064341046 0.08113327
0003f0 40 ed d4 3d 4a 56 18 3e d5 76 28 3e e5 7d 4e 3d
       0.10396814 0.14876667 0.16451581 0.05041303

block2.downsample.0.bias f4 [8]
000000 8d 60 bd 3c f1 e4 98 3d 62 5f 27 be f9 6b 15 3e
       0.023117328 0.07465542 -0.1634498 0.1459197
000010 89 81 17 3e 4b bb 90 3d 82 12 f8 3d 0d a5 fd 3d
       0.14795507 0.07066973 0.12112905 0.123849966

block2.downsample.1.weight f4 [8]
000000 02 d3 7f 3f 13 27 7e 3f 2c f5 7d 3f 8e 70 7b 3f
       0.9993135 0.9927837 0.9920223 0.9821862
000010 1d b3 81 3f 76 e2 7e 3f fd cc 7b 3f e3 ea 7c 3f
       1.0132786 0.995643 0.9835966 0.9879591

block2.downsample.1.bias f4 [8]
000000 a4 8d cc bc db 37 44 3c 26 1e e5 b8 2a 3f 3a 3c
       -0.024969883 0.011976208 -0.000109251865 0.011367599
000010 c9 69 09 3c df 7c 61 bc 8a 58 b3 bb 50 e9 58 bc
       0.008387038 -0.013762682 -0.005473201 -0.01323922

block2.downsample.1.running_mean f4 [8]
000000 c3 fb a8 3e 9c c2 ce 3e 14 c9 b2 be 88 1c a9 bb
       0.3300458 0.4038285 -0.34919035 -0.005160872
000010 4b bd 55 3e 31 c0 9e 3e e9 9d 31 be 9a 9e 2d 3e
       0.20872991 0.31006005 -0.17345394 0.16955033

block2.downsample.1.running_var f4 [8]
000000 1c cb ee 3f 2d f7 1b 3f 45 74 29 3f ee b6 76 3f
       1.8655734 0.60924035 0.6619304 0.9637288
000010 06 dd 90 3f 32 10 da 3f 95 c1 f5 3f 86 2a 07 40
       1.1317451 1.7036192 1.9199702 2.1119704
